production_models/2023-03-06-105610_484882/best.ckpt (torch, 102667 bytes, 6 tensors)

decoder.ffn.1.weight f4 [59, 134]
00000000: 6566 d63c f989 063e dc58 1b3e 7576 103c
00000010: 3255 b93d ba55 de3d 3d82 2fbe df93 33be
00000020: 9b10 253e e3fd 433e b935 4fbe f358 40be
00000030: ce57 a93d 7cde 3abe b3ee 043d 216a fe3d
00000040: 2d91 2abe 8aa6 c13b 4e50 d73d ce43 62be
00000050: 109b 733d 5e7f e23c 27b9 cd3e 88ae c73d
00000060: 458b c33e 90c1 c53e c2e6 803e d797 d13e
00000070: 63fd 103d feda 913e d30a 533e f91d 573e
00000080: 56f5 433e a737 723e b08e 543e cedb 6f3e
00000090: 8efc 563e 0539 b93b 93cc 83bd 02c4 903d
000000a0: e578 bfbd 99c9 f93c c6e2 d83b 138a 96bd
000000b0: 341b 11be d078 e4bd 1d01 32be e2b7 e33b
000000c0: 2036 6cbe 2152 d53d 2a1d 0b3e 599e 84bc
000000d0: 2a72 a9bd c2d3 20be f712 57be 56d5 73be
000000e0: a669 aebd 0d0b 133e d15d d5bd d602 11be
000000f0: 8618 bcbd a075 e9bd 722b d4bd e242 e8bd
00000100: 773d d4bd 3626 e9bd 9385 d6bd e0e6 10be
00000110: 141b d5bd 5019 11be 4ee8 343e 189d 1b3d
00000120: cf8c e3bc a06b a03d c747 6e3b 6e06 a23e
00000130: 39b9 d1bd 3584 11bd 5299 06be faea fbbc
00000140: d716 2a3e 93de 0f3e 9638 b33d 9d90 033e
00000150: 962d 963d 7689 513e 7ba9 293e 3555 733e
00000160: 67de 4d3e 94da 3cbe 0d15 72be ff1a e43d
00000170: 88d0 2dbe b8eb e9bb 4082 f3bc 30ca 163e
00000180: 370c 623e 9f22 c3bb a2b2 d4bc e135 f93d
00000190: 5c88 293e abbc 013d ff3f 8f3d 3b92 8f3d
000001a0: bba7 733e 3ee0 71be 2584 1abe d562 67be
000001b0: 8a19 70be 7bf2 753e d6bb 823d b9b5 90bd
000001c0: 57e0 8fbd acc9 21bc e32e 12bc f212 963d
000001d0: 44a8 4dbd 7fcd adbd fa74 d03d c4b8 0dbe
000001e0: 056c 4f3e 6c51 2cbe 18ed bb3d 2d39 34be
000001f0: 05bf d53d f3d0 ccbd acae 34be 095e e93d
00000200: 8591 edbd 2917 113e 4f34 1bbd 791a d1bd
00000210: 07d9 e5bd de17 323c 9442 043e 8f16 913c
00000220: f340 ba3c 44ec b73d cea6 a43c c830 933d
00000230: c750 1cbe a204 46be 45ef ce3d 6732 013e
00000240: 005e 26be a7f5 eabd db54 dabd 479d d1bd
00000250: 5181 613b aefa 6e3a 88cf 30bd b3b3 2dbe
00000260: 8577 2dbe a1af 5bbe 0d5f 2dbe cec7 31bd
00000270: 61e5 8a3e 5532 e73d d553 963e 343b 753e
00000280: 8412 7d3e acb3 913e 9cec 403b 048b 4b3e
00000290: 4fc1 013e c615 253e cb48 443e dd51 433e
000002a0: 05be 413e df16 fb3d 390f 2e3e 21d7 683e
000002b0: 3bd7 5bbe 429e b63d 6722 2dbe 6648 8e3c
000002c0: 95b1 d3bd 0356 ad3d fdd2 e6bd 772f 2dbe
000002d0: 5937 2dbe 9617 2dbe dd5f 713b 3cd6 9ebc
000002e0: 4369 1abe b5fb 87bc 27bd cebb 6455 d8bd
000002f0: 22b6 c7bd 8d5b 713d 2a13 1ebc 24bf 453e
00000300: 3891 edba 0c42 2e3d 5568 80bc e1b0 f0bd
00000310: 6d4a 5cbd e3be 9cbd 8fac 88bc f0c0 1ebe
00000320: dceb a0bd 0a8e 983d fe6f e5b9 d0f7 e23c
00000330: 91c2 62bd 51d7 25be e445 fe3c 8f1a 0e3e
00000340: 13be c7bd a922 5c3e c01e 90bc 3027 003d
00000350: 9575 f1bb 39c1 0cbd 6391 313d 9b31 2d3e
00000360: 27ad 2c3e 5ad8 453e 385a d93d 66e3 263e
00000370: 4627 d33d d40b 72bd 34a2 2f3e 9a39 dabd
00000380: 94bf adbd f7b0 cf3d 8754 a2bd d5f4 d73d
00000390: 4d6c 2d3e fb31 5fbd 843c aabd b13e ca3b
000003a0: 5a27 82ba 6f25 1e3e f966 2e3e 2d2f 963d
000003b0: 89fb 023e 4a47 0dbc 4de9 d23b a3ac f9bd
000003c0: 9c95 b93b 1828 69be 83fd b93d 2a76 5e3e
000003d0: 159f ba3d f071 ddbc 20d9 b6bd 3ee3 acbc
000003e0: 1c02 563d 0eca aebd ec1e aebd 790c 2bbd
000003f0: 0b95 8fbd 2704 6fbd ab8e 1a3e 161e 7cbd
0.026171872 0.1313857 0.15170616 0.008817305 0.09049453 0.10856195 -0.17139526 -0.17536877
0.16119616 0.19139819 -0.20235337 -0.18783931 0.082687005 -0.18248934 0.032454204 0.12422586
-0.16656943 0.0059097456 0.10513364 -0.22096178 0.05947405 0.027648624 0.40180323 0.09750086
0.38192192 0.3862424 0.25176054 0.40936157 0.0353979 0.2848739 0.20609598 0.21007527
0.19136557 0.23654042 0.20757556 0.23423693 0.2099478 0.005652549 -0.06435504 0.070686355
-0.09349231 0.030491637 0.0066188304 -0.07350554 -0.14170533 -0.11155856 -0.17383237 0.006949411
-0.23067522 0.104160555 0.13585344 -0.016188787 -0.08273728 -0.15705779 -0.21003328 -0.2381185
-0.085162446 0.14359684 -0.10418285 -0.14161238 -0.09184365 -0.11399388 -0.10359849 -0.11340882
-0.10363286 -0.11384241 -0.10474696 -0.14150572 -0.10405555 -0.14169812 0.17666742 0.037991613
-0.027777104 0.07833028 0.00363587 0.3164553 -0.102404065 -0.035526473 -0.13144425 -0.030751694
0.16610275 0.14049749 0.08751027 0.12848134 0.073329136 0.20462593 0.16568558 0.23762973
0.20104371 -0.18442756 -0.23640843 0.111379616 -0.1697408 -0.0071386956 -0.029725194 0.14725566
0.22074972 -0.005955055 -0.025964085 0.1216848 0.16555923 0.03167407 0.06994628 0.07010313
0.23794453 -0.23620698 -0.15089472 -0.22596295 -0.23447242 0.2401828 0.06383483 -0.07065911
-0.07025211 -0.0098747425 -0.0089223115 0.07327832 -0.0502093 -0.08486461 0.101785615 -0.13840014
0.2025605 -0.16827935 0.091760814 -0.17599936 0.10436825 -0.100007914 -0.17644757 0.11394889
-0.11600021 0.14168991 -0.037891682 -0.102101274 -0.11223035 0.010869948 0.12916023 0.017710952
0.022736048 0.08980611 0.02009907 0.07187039 -0.15265189 -0.19337705 0.10104231 0.12616883
-0.16246796 -0.11472636 -0.10660716 -0.102350764 0.0034409354 0.00091163337 -0.043166667 -0.16963081
-0.16940124 -0.21453716 -0.1693079 -0.04340344 0.27128127 0.11288897 0.29360834 0.23948365
0.24714094 0.2845739 0.0029437905 0.19877249 0.12671398 0.16121587 0.19168393 0.19074197
0.18920143 0.12260222 0.16997994 0.22738315 -0.21468823 0.08916904 -0.16907655 0.017368507
-0.103366055 0.08463671 -0.112707116 -0.16912638 -0.16915645 -0.16903529 0.003683082 -0.019389264
-0.15079217 -0.016599515 -0.00630917 -0.10563162 -0.09751536 0.0589252 -0.009648124 0.19311196
-0.0018124944 0.042543456 -0.01567475 -0.11752487 -0.053781915 -0.07653596 -0.016683845 -0.15503287
-0.078574866 0.07448967 -0.00043761724 0.027706057 -0.055361334 -0.16195418 0.031039186 0.13877319
-0.09753051 0.21497597 -0.017592788 0.031287372 -0.007368753 -0.03436396 0.043351542 0.16913454
0.16862927 0.19320813 0.10612911 0.16297683 0.10310225 -0.05909331 0.1715172 -0.10655518
-0.08483806 0.10141175 -0.079262786 0.10544745 0.16935845 -0.054491024 -0.08312324 0.006172024
-0.000992994 0.15443967 0.17031468 0.07333217 0.12791266 -0.008622954 0.006436503 -0.12191131
0.005663587 -0.22769201 0.09081557 0.21724764 0.09112374 -0.027031869 -0.08928132 -0.021104451
0.052248105 -0.085346326 -0.08501992 -0.04175994 -0.070108496 -0.05835357 0.15093486 -0.06155213

decoder.ffn.4.weight f4 [1, 59]
00000000: 54b4 0b3f 03ac 143f 5cca 18bf c351 023f
00000010: b58a 09bf de13 22bf 33a5 06bf 2c34 11bf
00000020: 8889 08bf 1e08 19bf 53bd 0ebf 5f57 0bbf
00000030: 0e47 0a3f 24a5 0bbf d5f3 0cbf ee18 1abf
00000040: f4ed 01bf 8afc 13bf 617e 073f 82aa 1bbf
00000050: a0b9 033f a8d0 053f b7a9 14bf 3601 fbbe
00000060: 9914 093f 8d6f 18bf 4242 023f ccb2 14bf
00000070: 9e6b 0c3f bb7a 0dbf 0fc8 063f 27e1 1cbf
00000080: 19da 193f 0878 07bf aaf8 1d3f 2b2f 173f
00000090: 1e0b 1dbf deab f43e 9f38 063f 41ce 1dbf
000000a0: dcdc 0ebf b707 1c3f 1f47 f93e 61f7 10bf
000000b0: 7465 e73e 04d9 13bf 0219 f73e 454e 203f
000000c0: 97ff f13e 4f76 15bf 0754 0f3f 6f20 14bf
000000d0: eb14 0a3f cbc0 11bf 4491 0b3f 2e7b 0cbf
000000e0: e7a0 133f 68e0 e73e 2a41 22bf
0.54572034 0.5807497 -0.59683776 0.5090601 -0.53727275 -0.63311565 -0.52595824 -0.5672023
-0.53334856 -0.5977801 -0.55757636 -0.5443019 0.5401467 -0.5454886 -0.5505956 -0.6019429
-0.5075371 -0.5780722 0.52927214 -0.6080705 0.51455116 0.5227151 -0.58071464 -0.4902436
0.53547055 -0.59545213 0.5088235 -0.5808532 0.5485171 -0.55265397 0.52649015 -0.61281055
0.60098416 -0.5291753 0.61707556 0.5905635 -0.6134509 0.47787374 0.52430147 -0.61642843
-0.55805755 0.6094927 0.48687074 -0.5662747 0.4519459 -0.57753015 0.48261267 0.6261943
0.47265312 -0.5838365 0.5598759 -0.5786199 0.5393817 -0.56934804 0.5451853 -0.5487546
0.5766739 0.45288396 -0.6338068

exp_avg f4 [59, 134]
00000000: 9d1f 993a 5c2a 49b9 32be 613a e372 f939
00000010: 2ef8 50b9 6c7e 153a 057a 2c37 34f8 4538
00000020: 8474 3a38 c05b 103a 5e09 9636 e48f 2137
00000030: 10ec ddb9 f00b 9437 d73e c338 d4c9 9bb8
00000040: b225 9ab8 c1a4 ceb7 767d 00ba bf82 7e39
00000050: 84fa b8b9 9000 ea37 8582 ddb8 e1c7 acb9
00000060: 0e53 c0b8 3ad4 b6b8 f385 4bb9 b682 0fb8
00000070: 18b3 a7b9 82f1 2b39 f506 40b8 9a46 29b9
00000080: 3d99 8538 7cff 4f39 cdc3 66b9 41ad 1d39
00000090: 54f6 05b9 d5ae 9d3a 4e54 073a f7f5 06ba
000000a0: 5445 8f38 2e68 b1b9 19d1 70b9 ee20 e2b9
000000b0: 65c6 7637 3bd3 2fba ca97 9137 703e 143a
000000c0: f6f2 2639 15eb eeb9 636a f3b8 5c32 8fb9
000000d0: 80e8 1339 8428 8937 ecca b536 d9ec 2135
000000e0: 1c8d 1137 0a45 feb9 e6cd 2f37 c702 0839
000000f0: 95e2 1237 f337 2137 5241 2b36 bbcc b137
00000100: b500 1536 1a6c 7836 8e5b d036 6f9e 7134
00000110: 2397 aa37 4f1e da38 0206 2139 f493 ce39
00000120: 0000 0000 8031 34b9 4047 8d3a cc5b b439
00000130: 9352 1039 06a3 d3b8 34a9 1e37 8aef fa39
00000140: f5a0 7bb9 cdf4 d238 613a ce39 2460 cd37
00000150: 1b5b 1537 9f8e 13b9 77e9 1dba fe36 61ba
00000160: 1d12 14b9 a932 1338 a344 a238 e114 e8b8
00000170: 79fe df37 69bb 20ba 2bfb a6b9 6b24 e8b9
00000180: 30cd 15b9 0576 2f3a 6598 9e3a 8ea8 1939
00000190: 9849 04b8 35f0 69b8 2cc3 053a 115e 923a
000001a0: b742 a7ba cbc4 6039 5f9c 9339 d98e 6e37
000001b0: 148c 0e3a d26a b1b7 f878 23b9 e26d 3439
000001c0: 245b 1139 ed05 bab9 3609 103a 5c05 2bb9
000001d0: 0400 0000 0000 0000 552d d9b9 0400 0000
000001e0: 904f 8fba afdb c338 0694 03b8 49f1 a238
000001f0: 49a8 6337 9145 7f37 31c1 3938 a97a 9fb9
00000200: 1dc2 be37 83e9 5db9 861c 153a df86 c938
00000210: 317f bd36 0000 0000 c1e0 773a d87b 2eb8
00000220: cfa4 823a a595 c1b9 1a2b 8ab9 4eb6 913a
00000230: 1579 9c37 cfaf 5238 b4a8 c638 c204 223a
00000240: cf1f c237 fb26 7537 595b 01b9 159c 3138
00000250: 5763 7a39 0d05 7137 c8ff 48b9 e818 8b39
00000260: 3284 4a3a 7a0d 1339 ba48 b237 8609 c638
00000270: 28be ebb8 dc27 f439 d2b2 ccb8 6595 c2b8
00000280: 7e9a 58b9 2bb7 18b8 11bb b5b9 8705 3739
00000290: b4ff e8b8 6ab6 67b9 9c17 8138 6eb9 5339
000002a0: 6b18 66b9 0e26 b139 27c5 29b9 f55c 313a
000002b0: 0efc d139 7d45 98ba c7a4 0e35 f1f2 30b8
000002c0: 3305 bd39 b8d5 93ba a772 7737 0ae0 6737
000002d0: 0f9a 4736 7773 243a d3b8 0c39 3333 58b8
000002e0: 201a 24b7 6983 f6b9 32f1 2eb8 032e 8d37
000002f0: 73bd 9937 e420 fdb8 0400 0000 ea4f 07ba
00000300: 0400 0000 7dc6 8138 0400 0000 25d9 af38
00000310: 0400 0000 f308 1338 0400 0000 4064 8638
00000320: 0400 0000 fed3 d5b6 0400 0000 4f33 06b8
00000330: 0400 0000 f383 bc37 0000 0000 6d32 a5b9
00000340: 1228 963a 2d98 be39 0e37 b337 beb3 deba
00000350: faae 3e3a ffe2 2c3a 9d94 aeb8 add2 d9b8
00000360: 6609 ef38 a051 c6b9 325f ba39 780b 1db9
00000370: 919f 1dba 40c9 e7b6 ad89 0db9 1da9 1c38
00000380: 914a 5e37 f575 8ab9 9bb1 fa37 66f4 9cb9
00000390: 6ef5 483a 0400 0000 0000 0000 000b 993a
000003a0: cf90 b93a 77fa 28ba 1fca 0cb8 648c 6ab9
000003b0: 4861 0e3a c9c6 9b3a c35d 2b3a 773b 5c39
000003c0: 21c0 5cb9 290c fa33 5026 9039 2cd3 bcb7
000003d0: 76fd 2db9 99ca 89b8 2e72 0c38 b072 e7b9
000003e0: fd4f 193a 790b cc23 617a 322b 9b5c 54b7
000003f0: 0400 0000 ef37 0536 d769 90ba 0000 0000
0.0011682395 -0.00019184634 0.000861141 0.00047578578 -0.0001992888 0.0005702737 1.0280409e-05 4.7199617e-05
4.445437e-05 0.0005506836 4.471439e-06 9.62985e-06 -0.00042328285 1.7648534e-05 9.3100294e-05 -7.4285694e-05
-7.3503135e-05 -2.4633833e-05 -0.00049015076 0.00024272034 -0.00035281864 2.7895236e-05 -0.00010562412 -0.00032955318
-9.1707436e-05 -8.7179666e-05 -0.00019409489 -3.421559e-05 -0.00031986157 0.000163978 -4.5782846e-05 -0.00016143397
6.370477e-05 0.00019836234 -0.00022007451 0.00015037229 -0.00012775633 0.0012030253 0.00051624037 -0.0005148346
6.831685e-05 -0.0003383769 -0.00022966079 -0.00043130614 1.4708935e-05 -0.0006707196 1.735603e-05 0.0005655056
0.00015921504 -0.00045570047 -0.00011606959 -0.00027312606 0.00014105625 1.635054e-05 5.4178436e-06 6.032183e-07
8.675528e-06 -0.00048498093 1.0478752e-05 0.00012971005 8.755033e-06 9.6093745e-06 2.5519007e-06 2.119538e-05
2.2203142e-06 3.7017803e-06 6.2095414e-06 2.2502512e-07 2.0335958e-05 0.000104006955 0.00015356395 0.00039401616
0.0 -0.00017184578 0.001077868 0.0003440067 0.00013763671 -0.000100916295 9.45693e-06 0.00047862186
-0.00023997187 0.00010059178 0.00039334878 2.4482673e-05 8.902304e-06 -0.00014072143 -0.00060238637 -0.00085912633
-0.00014121128 3.5094712e-05 7.7375465e-05 -0.00011066511 2.670217e-05 -0.0006131442 -0.00031849122 -0.00044277622
-0.00014286186 0.00066933065 0.001209986 0.00014654009 -3.1539792e-05 -5.577524e-05 0.000510263 0.001116695
-0.0012760971 0.00021435616 0.0002815453 1.4219165e-05 0.00054377434 -2.1149786e-05 -0.00015589956 0.00017207072
0.0001386223 -0.000354811 0.00054945366 -0.00016309827 6e-45 0.0 -0.0004142324 6e-45
-0.0010933746 9.339244e-05 -3.137069e-05 7.769705e-05 1.3569436e-05 1.5215382e-05 4.428736e-05 -0.00030418232
2.2740156e-05 -0.00021163192 0.0005688149 9.6095486e-05 5.647446e-06 0.0 0.0009455793 -4.160017e-05
0.000996733 -0.00036923322 -0.00026353524 0.0011116953 1.8653032e-05 5.0231636e-05 9.472799e-05 0.00061805185
2.3141414e-05 1.4612214e-05 -0.00012336428 4.234545e-05 0.00023878865 1.4365895e-05 -0.00019168772 0.00026530703
0.0007725387 0.00014024033 2.125312e-05 9.4431496e-05 -0.000112410926 0.00046569004 -9.760786e-05 -9.278468e-05
-0.00020656918 -3.6410212e-05 -0.00034662386 0.00017454299 -0.000111102505 -0.00022097831 6.155597e-05 0.00020191606
-0.00021943606 0.00033788424 -0.00016190541 0.0006765866 0.00040051382 -0.0011617389 5.3138905e-07 -4.2187927e-05
0.00036052763 -0.0011278903 1.4749042e-05 1.3820836e-05 2.9742985e-06 0.0006273309 0.00013420293 -5.1546096e-05
-9.781244e-06 -0.00047018685 -4.1709463e-05 1.6829936e-05 1.832724e-05 -0.000120701065 6e-45 -0.00051617494
6e-45 6.188171e-05 6e-45 8.3850966e-05 6e-45 3.5055866e-05 6e-45 6.408291e-05
6e-45 -6.372574e-06 6e-45 -3.1995874e-05 6e-45 2.247279e-05 0.0 -0.00031508823
0.0011456034 0.00036353004 2.13641e-05 -0.0016990823 0.00072739983 0.00065951044 -8.324648e-05 -0.00010386608
0.00011398159 -0.00037826318 0.0003554761 -0.00014976959 -0.0006012852 -6.907765e-06 -0.00013498096 3.7350797e-05
1.32495925e-05 -0.00026409296 2.9885026e-05 -0.0002993673 0.00076659664 6e-45 0.0 0.0011676252
0.0014157536 -0.00064460136 -3.356684e-05 -0.00022368279 0.0005431366 0.0011884804 0.0006537104 0.00021002987
-0.00021052409 1.1643744e-07 0.00027494365 -2.2509681e-05 -0.00016592987 -6.570406e-05 3.348494e-05 -0.00044145202
0.0005848406 2.2122583e-17 6.340814e-13 -1.2657746e-05 6e-45 1.9851102e-06 -0.0011017871 0.0

exp_avg_sq f4 [59, 134]
00000000: 22ca 8a36 6e48 d635 9a1d 7b37 9be4 6837
00000010: 57f2 0b37 d3d0 5b37 c1e8 9532 1357 1b33
00000020: 5014 8b35 5a7c 7437 be82 2332 881f 8232
00000030: c8d0 5f37 cb88 c132 a270 2437 f353 2536
00000040: 86da 1c36 9e8c e836 c69c 0037 02cb 1735
00000050: ab77 1f37 57dc 0a37 bc76 6a34 30fb 3237
00000060: daf1 3034 f8ad 7834 edf4 8434 5e21 8f34
00000070: 1d33 e336 e8e6 1e36 efe4 5035 c689 5835
00000080: c5e9 4a35 415a a935 0d3f 4d35 e977 da36
00000090: ff25 5135 c15d e836 d171 ec36 6f85 1737
000000a0: 61bb d536 e8a6 2f37 3aba f736 eb2b c736
000000b0: 6b5c 7333 0689 7036 fb26 1034 1208 1037
000000c0: ca5b 9034 8e02 e536 8001 e236 6c66 a936
000000d0: 9bdf 9a36 5994 4033 6e80 7e32 cc26 bf35
000000e0: 7cc8 0d32 3b5b d035 a337 2231 7830 fd33
000000f0: e8d8 b231 f662 3c32 627e 3031 4a05 3632
00000100: 7626 2031 012d 1032 4a30 be2f 4312 bd33
00000110: a5ab 8930 9b6a 9d33 5f9f 0136 d8ad 9136
00000120: 0000 0000 861d 0137 70cb 3f37 80b3 ba35
00000130: 35dd a035 6f8d 2f37 8c94 9536 a1ad bf36
00000140: 97ad 8937 7fc7 e737 8644 1e37 acb4 9935
00000150: 2832 3e37 fb45 7734 0d6c 1137 5e94 c336
00000160: 1a26 7034 ca1f 0834 e58c 5533 03de 0137
00000170: ebbf ab33 cb11 1537 7942 1f37 bfac 8636
00000180: 8b7e 1b35 a731 8c37 6a21 5b37 b9a0 9036
00000190: bb97 4e33 d0ea c935 b80a cb36 6459 eb36
000001a0: 203a e136 af15 4634 8217 d536 2119 0533
000001b0: 9c0f 5736 51bc 2433 7cfe a136 0ff5 c635
000001c0: d9a3 a036 cfb6 2b36 d82d 1437 cbfa 0136
000001d0: 0ed1 3530 0000 0000 a991 a135 a9d1 8132
000001e0: 0d72 5b37 874e 1433 ee4b 5f35 c3e0 fd32
000001f0: 025f 8735 31f8 3833 58ac 2733 fd96 8135
00000200: b968 fb32 a3be 8836 11ea 9435 6b53 2733
00000210: 54b1 0b33 0000 0000 a597 3d37 597c aa35
00000220: 3075 6037 06bd da37 27c8 0837 3c1b 6b37
00000230: 1620 9633 8f35 8633 b93a a135 7a53 8c37
00000240: dcc9 bc32 54ad 3833 88a9 b036 36fc 9033
00000250: 8333 1b37 0017 3436 a2c3 a036 34c6 cc35
00000260: 96e2 f235 ec80 aa34 d45b e235 ca92 d236
00000270: ad15 9234 e2fd 7637 f7b7 6234 504f 9634
00000280: 56eb a934 f2b7 ae34 a86a 0437 f542 3736
00000290: 7fa8 7e35 138f 8a35 ea0a 8735 d469 d035
000002a0: cd6f 8335 c151 2f37 95e8 8735 f3b8 5037
000002b0: 45a4 e434 a21c 4837 98d8 0536 3bf1 4037
000002c0: 99da 0937 e4cf 8137 8ed1 d032 08e1 3834
000002d0: e617 0e33 4d80 ec34 7fff 9c36 8842 c536
000002e0: 6346 1b36 4fd6 c536 0b09 0137 0c91 9e33
000002f0: fe52 c933 22ea 2c37 5bab c531 9885 f135
00000300: 3857 0232 0161 8835 f099 9d31 a1d9 c133
00000310: 3408 9030 edac c733 39c7 8031 0cb6 9f33
00000320: 32da f72f 0667 7e35 6a1d 1732 bb04 9135
00000330: ee5e 7e30 b5be 4e35 0000 0000 0fc4 1237
00000340: 9d0d 1137 81cb bc35 8263 f035 3c5f 3c37
00000350: ad3c 6f37 afbc 1237 f2e8 3637 785a 9137
00000360: da34 2837 cfd3 3636 8ea2 7537 b735 9634
00000370: ed8a 4736 8113 eb34 5952 9534 2e10 3734
00000380: 7c9a 2f36 8189 ef36 6dd8 fd33 172e ba37
00000390: b7bc 2837 d96c 1d31 0000 0000 05db 9837
000003a0: 885c 9b37 ace0 3736 fbaa 9a33 846d 8d35
000003b0: 4074 e936 23a5 0637 cef1 9036 4ae7 ef35
000003c0: 7612 3337 382a 3a34 2c01 e736 fc92 8833
000003d0: d908 ba36 1458 2636 31de 0536 3577 3e36
000003e0: 40bc 2937 5957 6c33 98ce 0333 aee3 0133
000003f0: 23a0 1331 4a11 8c31 5a04 6d37 0000 0000
4.136252e-06 1.5965322e-06 1.4967658e-05 1.3881504e-05 8.34147e-06 1.3102038e-05 1.7451727e-08 3.6167943e-08
1.0362219e-06 1.4572486e-05 9.517576e-09 1.514833e-08 1.33404465e-05 2.2530363e-08 9.801386e-06 2.463578e-06
2.3373009e-06 6.930509e-06 7.665896e-06 5.65473e-07 9.505001e-06 8.276743e-06 2.1836144e-07 1.0668111e-05
1.6479262e-07 2.316009e-07 2.4765123e-07 2.6660103e-07 6.7710776e-06 2.367824e-06 7.781918e-07 8.066676e-07
7.5591043e-07 1.2617749e-06 7.64602e-07 6.5108657e-06 7.791386e-07 6.925053e-06 7.046598e-06 9.031369e-06
6.3697084e-06 1.0469674e-05 7.3828533e-06 5.935775e-06 5.66619e-08 3.5842545e-06 1.3425226e-07 8.584948e-06
2.6888875e-07 6.8250292e-06 6.7354995e-06 5.048516e-06 4.6155888e-06 4.4838405e-08 1.4813947e-08 1.42419e-06
8.252865e-09 1.5523759e-06 2.3605728e-09 1.1790047e-07 5.205141e-09 1.0965541e-08 2.5683211e-09 1.0594997e-08
2.3304927e-09 8.392136e-09 3.459511e-10 8.80432e-08 1.0016846e-09 7.3302736e-08 1.9315264e-06 4.341575e-06
0.0 7.695873e-06 1.1431854e-05 1.3910321e-06 1.1985309e-06 1.0463743e-05 4.457839e-06 5.7124566e-06
1.6412507e-05 2.7630243e-05 9.433488e-06 1.1451971e-06 1.133656e-05 2.3029126e-07 8.667831e-06 5.828725e-06
2.2365603e-07 1.2677552e-07 4.972107e-08 7.74069e-06 7.997718e-08 8.885235e-06 9.492615e-06 4.0136215e-06
5.7926144e-07 1.6712422e-05 1.3061197e-05 4.310245e-06 4.810111e-08 1.5044006e-06 6.0511193e-06 7.013952e-06
6.712289e-06 1.8448075e-07 6.3506313e-06 3.098933e-08 3.2046582e-06 3.83555e-08 4.8278e-06 1.4823471e-06
4.787446e-06 2.5587394e-06 8.832161e-06 1.9368479e-06 6.61445e-10 0.0 1.2037827e-06 1.5112919e-08
1.3079972e-05 3.4530355e-08 8.3184466e-07 2.9555286e-08 1.0085935e-06 4.3066567e-08 3.9039463e-08 9.655192e-07
2.9267868e-08 4.075309e-06 1.1094982e-06 3.8958586e-08 3.252474e-08 0.0 1.1300585e-05 1.2702177e-06
1.3378725e-05 2.6075646e-05 8.152833e-06 1.40134325e-05 6.990756e-08 6.2496035e-08 1.2012525e-06 1.6728172e-05
2.1977876e-08 4.299848e-08 5.264945e-06 6.7513994e-08 9.250713e-06 2.6835478e-06 4.7911462e-06 1.5256869e-06
1.809635e-06 3.175877e-07 1.6865038e-06 6.275576e-06 2.721039e-07 1.4721854e-05 2.1114816e-07 2.7997385e-07
3.1649932e-07 3.2543863e-07 7.892646e-06 2.73081e-06 9.486757e-07 1.0323441e-06 1.006146e-06 1.5528008e-06
9.792799e-07 1.0449848e-05 1.0125974e-06 1.2440828e-05 4.258783e-07 1.1927596e-05 1.9944619e-06 1.1500258e-05
8.216733e-06 1.5474805e-05 2.4309681e-08 1.7218201e-07 3.3083687e-08 4.4051777e-07 4.678906e-06 5.8788028e-06
2.313777e-06 5.8960063e-06 7.691105e-06 7.383832e-08 9.374888e-08 1.0306512e-05 5.7529355e-09 1.799478e-06
7.586827e-09 1.0161021e-06 4.586802e-09 9.026849e-08 1.047971e-09 9.2981146e-08 3.7479393e-09 7.4371286e-08
4.5084075e-10 9.477229e-07 8.796045e-09 1.0804719e-06 9.2539565e-10 7.7018495e-07 0.0 8.747927e-06
8.645843e-06 1.4066319e-06 1.7910354e-06 1.1227847e-05 1.4259637e-05 8.7462095e-06 1.0902282e-05 1.7327475e-05
1.0025886e-05 2.7243402e-06 1.4640986e-05 2.797876e-07 2.9734176e-06 4.3786352e-07 2.7813329e-07 1.7049089e-07
2.6166954e-06 7.1387626e-06 1.1820598e-07 2.219439e-05 1.0057519e-05 2.290838e-09 0.0 1.8221801e-05
1.8520528e-05 2.7399901e-06 7.202285e-08 1.0537192e-06 6.9574744e-06 8.025471e-06 4.319684e-06 1.7874202e-06
1.067353e-05 1.7337959e-07 6.884473e-06 6.35973e-08 5.544262e-06 2.4787196e-06 1.9947877e-06 2.8381594e-06
1.0117015e-05 5.5027474e-08 3.068871e-08 3.0242227e-08 2.1482343e-09 4.076502e-09 1.4127314e-05 0.0

exp_avg f4 [1, 59]
00000000: 716f 35bb b9c4 cfba 67ba 143b 04d4 04bb
00000010: f981 2b3b 8bd8 5c3b e4b5 463b 3f6d 3b3b
00000020: dac5 513b 035a 433b 9518 1f3b 34f5 5d3b
00000030: 193e 0abb 63b0 453b 7a4f 573b ebc6 0c3b
00000040: bdb3 1c3b f00d 223b ed37 31bb f07f 453b
00000050: 12a2 b9ba 64e1 58ba 420a 263b d153 643b
00000060: abf3 ddba 9559 3c3b f2a8 f7ba 5cba 223b
00000070: 1cb8 d9ba 4a78 283b 44f9 3cba 6e28 573b
00000080: 0e1d b1ba c646 703b d94f 21bb 49f0 a7ba
00000090: f1a3 513b 2f1e 8bb9 0b33 c4ba 8db9 3d3b
000000a0: a2c7 253b bd39 f7ba 8637 33ba 3316 293b
000000b0: 1f36 6b39 7216 643b a642 40ba a9be 19bb
000000c0: 387d 10bb e497 363b 01fd 5aba 9889 183b
000000d0: 199e 45ba bf0c 1a3b bb5b 0eba c698 213b
000000e0: dce2 d6ba 94c7 d3ba f27c 473b
-0.0027684832 -0.0015851475 0.0022694112 -0.0020267973 0.002617 0.0033698406 0.0030320818 0.0028599051
0.0032008798 0.002980829 0.0024276127 0.0033868076 -0.0021094142 0.003016495 0.0032853768 0.002148087
0.0023910843 0.0024727546 -0.002704139 0.003013607 -0.0014162681 -0.0008273332 0.0025335704 0.0034839998
-0.0016933581 0.0028739918 -0.0018894954 0.0024830317 -0.0016610655 0.0025706463 -0.00072087743 0.0032830494
-0.0013512687 0.0036663278 -0.0024614243 -0.00128127 0.0031988586 -0.00026534635 -0.0014968825 0.0028949708
0.0025295992 -0.0018861812 -0.0006836582 0.0025800585 0.00022431508 0.0034803418 -0.000733415 -0.002345959
-0.0022047292 0.002786153 -0.00083537406 0.0023275372 -0.0007538512 0.0023506132 -0.0005430539 0.002465771
-0.0016394514 -0.0016157501 0.0030439463

exp_avg_sq f4 [1, 59]
00000000: ff29 1c38 09d4 dd37 1dc9 b837 7c20 1e38
00000010: 1788 e737 2ea2 a237 7dcf d937 52b5 a937
00000020: f204 e937 0c36 e137 0032 e337 3c40 d737
00000030: 1d62 1738 bf4b f937 3b0f fe37 ea81 9c37
00000040: 4f47 0c38 5a92 f237 098c 2738 33eb cb37
00000050: 25cf 2138 d187 1c38 ba84 de37 c6c7 1638
00000060: e03d 4838 284a f837 80c6 1538 93ee e637
00000070: 9407 3f38 736b ef37 4fd7 1c38 65c2 e137
00000080: 844a 1638 a67d 0638 af72 1738 f999 0c38
00000090: 1839 cd37 bf05 2838 8b1a 0038 9293 ef37
000000a0: 68d5 d537 c0b5 1738 7921 6338 f7e1 bf37
000000b0: d40f 9838 c4e0 e937 b1f6 6338 7c7c fd37
000000c0: 2301 5438 7c45 f237 37aa 1438 41c0 c137
000000d0: 3d9f 4238 189a 9737 733c 3d38 b6e8 0c38
000000e0: c275 1238 833a 8238 6da2 aa37
3.723241e-05 2.644399e-05 2.202816e-05 3.770039e-05 2.7600718e-05 1.9387426e-05 2.5965035e-05 2.0230804e-05
2.7778067e-05 2.6847258e-05 2.7083792e-05 2.5659909e-05 3.609258e-05 2.9718385e-05 3.0286252e-05 1.8657145e-05
3.3445012e-05 2.8916798e-05 3.994632e-05 2.4309009e-05 3.857831e-05 3.7319787e-05 2.6526268e-05 3.594884e-05
4.774134e-05 2.9598436e-05 3.5709236e-05 2.7529231e-05 4.5545006e-05 2.8541055e-05 3.739382e-05 2.6912612e-05
3.5832185e-05 3.206511e-05 3.6108013e-05 3.3522e-05 2.446449e-05 4.0059673e-05 3.05423e-05 2.8559738e-05
2.5490954e-05 3.6170473e-05 5.415219e-05 2.2874197e-05 7.250873e-05 2.788043e-05 5.4350767e-05 3.0217918e-05
5.0545797e-05 2.8881004e-05 3.5444475e-05 2.3096918e-05 4.6401507e-05 1.8072358e-05 4.511741e-05 3.359533e-05
3.4918783e-05 6.209782e-05 2.0341215e-05
