production_models/2022-12-16-144509_863758/best.ckpt (torch, 101003 bytes, 6 tensors)

decoder.ffn.1.weight f4 [59, 132]
-0.06328066 0.002060883 0.0033357332 0.018869067 0.00025766873 0.078230776 0.24064483 0.16276093
-0.0024460668 -0.06585359 0.1889649 0.2173061 -0.08470161 0.17883816 0.09944378 0.010265639
0.1225107 -0.08576612 -0.15824744 0.25569782 -0.085870944 0.04938655 -0.11241665 0.0011312169
-0.15295334 -0.15892681 -0.112386145 -0.1445787 0.031776227 -0.1626407 -0.037517868 -0.03759667
-0.037552454 -0.03519655 -0.0376645 -0.037666567 -0.037686504 0.0007540087 0.14906657 -0.13059829
-0.13755395 0.09034731 -0.13752702 0.077378325 0.31369922 0.16296734 0.1521473 0.09779351
0.16909571 0.016783632 -0.010723515 0.087424785 0.16478601 0.1842005 0.25151297 0.085927024
-0.01637799 0.034732908 0.053079598 -0.06840459 -0.06522581 -0.05083577 0.085355446 -0.005261473
-0.046701364 -0.010919375 -0.004755142 -0.06407929 0.019946447 -0.0098090675 -0.065983266 -0.0844192
0.047957864 -0.0019871958 -0.021031607 0.089055866 0.08409851 0.16261853 0.11221892 0.085595466
-0.024077907 0.024836572 -0.00080971495 0.031346392 0.013565311 -0.07905615 0.04467414 0.01920868
0.21207257 0.22812374 0.0028616306 0.323231 -0.07733897 -0.12294567 0.08568077 -0.04289493
0.05859432 0.16856329 0.03760229 -0.032047883 0.15839882 0.0377988 0.04556649 0.0013712897
-0.078699626 0.035153463 0.33506238 -0.017827882 -0.062933765 0.05739861 0.18342488 0.06374738
0.13047394 -0.07858884 0.02891208 0.13729332 -0.09139796 0.0025224646 0.14517944 -0.042067412
-0.040424127 -0.08452854 -0.05954394 0.061579525 0.053527873 0.008284992 0.04634407 -0.018393517
-0.034372594 0.06884687 0.05137142 -0.0794436 0.23368654 0.19343096 0.19462354 0.050239384
0.11450978 0.14887658 -0.19050021 -0.17990449 0.19856411 0.13248286 -0.17311001 -0.1688997
-0.057016037 -0.1655869 -0.15145503 0.19049275 -0.16512242 0.03383901 0.1855152 -0.24348523
0.06954769 0.03405029 0.26545435 0.008810553 0.38721803 0.15328379 0.36998028 0.39385146
0.058161207 0.1545011 0.21896653 0.21913145 0.21879427 0.21470773 0.21886323 0.12172587
0.21904016 0.0016461358 -0.08498878 0.16120069 -0.15098189 0.12521493 0.1283724 -0.028201796
-0.1679191 -0.18152751 -0.058622383 0.0339412 -0.18727463 0.16594732 -0.030527862 -0.1871943
-0.18743104 -0.16089807 -0.17197815 -0.046733297 -0.010817412 0.019711673 0.058697708 0.04767008
-0.011081186 0.073917024 0.02137823 0.053450502 -0.08076059 -0.04678995 0.018930705 -0.027816955
0.003302577 -0.021797651 0.022390818 -0.015643608 0.08330483 0.08339066 0.24147592 -0.17856933
-0.19365293 -0.03154764 -0.15467565 0.18140045 0.15129767 0.14548936 0.18721823 0.11873412
0.18339029 0.13252883 0.18737186 0.16978139 -0.16057734 -0.21473122 0.06407382 -0.19426298
-0.12847556 -0.06420035 0.16012397 0.2894977 -0.033948526 -0.100538366 0.13034274 0.25638753
0.037101053 0.22231007 0.1590125 0.1706872 -0.21900988 -0.21901362 -0.21890149 -0.12170983
0.2692465 0.030553078 -0.051193036 -0.037001982 -0.046123948 -0.000876988 0.12829347 -0.022058556
0.16747314 0.1148359 -0.08053328 0.030318815 0.006523963 -0.082077004 0.05472396 0.009716141
00000000: 4a99 81bd e10f 073b 519c 5a3b 4d93 9a3c
00000010: b617 8739 7537 a03d 996b 763e cdaa 263e
00000020: 314e 20bb 3fde 86bd 0480 413e 7e85 5e3e
00000030: 0a78 adbd 5a21 373e 2ea9 cb3d 3631 283c
00000040: e4e6 fa3d 26a6 afbd 9e0b 22be d3ea 823e
00000050: 1bdd afbd 8d49 4a3d b33a e6bd 5745 943a
00000060: cd9f 1cbe b6bd 22be b52a e6bd 700c 14be
00000070: ca27 023d 498b 26be 56ac 19bd f7fe 19bd
00000080: 9ad0 19bd 422a 10bd 1746 1abd 4248 1abd
00000090: 2a5d 1abd aba8 453a e8a4 183e 8fbb 05be
000000a0: f1da 0cbe 0308 b93d e2d3 0cbe 8778 9e3d
000000b0: 2f9d a03e e9e0 263e 80cc 1b3e f747 c83d
000000c0: 6d27 2d3e d47d 893c afb1 2fbc c40b b33d
000000d0: aabd 283e 0e9f 3c3e 4fc6 803e 82fa af3d
000000e0: 222b 86bc 1844 0e3d fe69 593d b517 8cbd
000000f0: 1c95 85bd 2b39 50bd d6ce ae3d 6f68 acbb
00000100: ee49 3fbd 2ee7 32bc 06d1 9bbb 013c 83bd
00000110: bb66 a33c 36b6 20bc 3c22 87bd f9e3 acbd
00000120: 776f 443d 9d3b 02bb 7a4a acbc ec62 b63d
00000130: d73b ac3d 7985 263e 08d3 e53d ad4c af3d
00000140: 083f c5bc 1176 cb3c 0d43 54ba 1365 003d
00000150: 0a41 5e3c 31e8 a1bd 3bfc 363d 865b 9d3c
00000160: 8d29 593e 4599 693e 328a 3b3b 897e a53e
00000170: e563 9ebd f0ca fbbd 6679 af3d 98b2 2fbd
00000180: 9900 703d db9b 2c3e dc04 1a3d a444 03bd
00000190: 4d33 223e ead2 1a3d eea3 3a3d d9bc b33a
000001a0: 452d a1bd 14fd 0f3d 4c8d ab3e c70b 92bc
000001b0: 6be3 80bd ce1a 6b3d bbd3 3b3e fd8d 823d
000001c0: f69a 053e 30f3 a0bd 07d9 ec3c 9f96 0c3e
000001d0: db2e bbbd ef4f 253b eba9 143e e14e 2cbd
000001e0: c593 25bd 4d1d adbd 59e4 73bd d03a 7c3d
000001f0: 0b40 5b3d c6bd 073c 48d3 3d3d 00ae 96bc
00000200: 47ca 0cbd 96ff 8c3d d76a 523d 53b3 a2bd
00000210: 864b 6f3e c412 463e 654b 473e d0c7 4d3d
00000220: 1b84 ea3d 1a73 183e 7d12 43be e238 38be
00000230: 6454 4b3e 96a9 073e c043 31be 0bf4 2cbe
00000240: a689 69bd 9d8f 29be 0717 1bbe 8810 433e
00000250: da15 29be c69a 0a3d b2f7 3d3e 3154 79be
00000260: 056f 8e3d 5178 0b3d a2e9 873e 235a 103c
00000270: 7141 c63e 6df6 1c3e 0e6e bd3e e6a6 c93e
00000280: 723a 6e3d 8935 1e3e c338 603e ff63 603e
00000290: 9b0b 603e 58dc 5b3e af1d 603e 6a4b f93d
000002a0: 104c 603e 27c3 d73a 990e aebd cb11 253e
000002b0: ff9a 1abe 5838 003e 0e74 033e 7407 e7bc
000002c0: fcf2 2bbe 59e2 39be 061e 70bd ed05 0b3d
000002d0: ecc4 3fbe 18ee 293e 9115 fabc ddaf 3fbe
000002e0: eced 3fbe 77c2 24be 0a1b 30be 6a6b 3fbd
000002f0: 843b 31bc 607a a13c 026d 703d b441 433d
00000300: dd8d 35bc cf61 973d 6621 af3c eaee 5a3d
00000310: cf65 a5bd d2a6 3fbd 9114 9b3c 62e0 e3bc
00000320: 0c70 583b fd90 b2bc f36c b73c 0627 80bc
00000330: b99b aa3d b9c8 aa3d 7745 773e e1da 36be
00000340: f44c 46be 1938 01bd 4b63 1ebe 0ac1 393e
00000350: c7ed 1a3e 2afb 143e 23b6 3f3e e02a f33d
00000360: aaca 3b3e a3b5 073e 69de 3f3e 2cdb 2d3e
00000370: 636e 24be 80e2 5bbe 2339 833d e0ec 46be
00000380: 198f 03be 797b 83bd 8af7 233e 0b39 943e
00000390: 9c0d 0bbd 0fe7 cdbd 9178 053e 3a45 833e
000003a0: 46f7 173d 40a5 633e 2cd4 223e a0c8 2e3e
000003b0: 2044 60be 1b45 60be b627 60be 0143 f9bd
000003c0: adda 893e 734a fa3c caaf 51bd 648f 17bd
000003d0: 77ec 3cbd abe5 65ba 5d5f 033e 25b4 b4bc
000003e0: 147e 2b3e 162f eb3d a2ee a4bd 2a5f f83c
000003f0: f8c6 d53b fd17 a8bd 3b26 603d 7330 1f3c

decoder.ffn.4.weight f4 [1, 59]
-0.5298748 0.4929162 -0.5207643 -0.47986567 -0.5742299 0.5592184 -0.56459635 0.545504
-0.5738453 0.4597971 0.51943314 0.53005517 -0.4842716 0.4887289 0.4742907 0.551579
-0.5604884 0.550654 -0.512275 0.5541742 0.5841712 -0.5456875 0.46281403 -0.53220356
0.4962986 -0.49559027 -0.53789324 -0.47033605 0.524438 0.5861793 -0.5217992 -0.5073604
-0.56408674 0.45574835 -0.567361 0.52498144 0.5134432 0.49771023 -0.49757752 -0.55956334
-0.5739541 -0.47614706 -0.56223774 -0.5078028 -0.54260427 -0.5253104 0.4987589 0.58854854
-0.53431475 -0.5207924 -0.55826914 0.46143106 0.5235975 -0.5505864 0.43784747 0.55315715
-0.49314448 0.5027269 -0.57095593
00000000: e0a5 07bf 835f fc3e cf50 05bf f4b0 f5be
00000010: bb00 13bf f028 0f3f 6389 10bf 26a6 0b3f
00000020: 87e7 12bf 876a eb3e 92f9 043f b2b1 073f
00000030: 72f2 f7be ad3a fa3e 3bd6 f23e 4834 0d3f
00000040: 2b7c 0fbf a9f7 0c3f 7424 03bf 5cde 0d3f
00000050: 3e8c 153f 2db2 0bbf f6f5 ec3e 7e3e 08bf
00000060: da1a fe3e 02be fdbe 5fb3 09bf e3cf f0be
00000070: 9241 063f d90f 163f a294 05bf 5fe2 01bf
00000080: fd67 10bf d957 e93e 923e 11bf 2f65 063f
00000090: 0371 033f e0d3 fe3e 7bc2 febe 8b3f 0fbf
000000a0: a8ee 12bf 8cc9 f3be d0ee 0fbf 5dff 01bf
000000b0: 1de8 0abf be7a 06bf 545d ff3e 1eab 163f
000000c0: dac8 08bf a752 05bf baea 0ebf b140 ec3e
000000d0: 7c0a 063f 3bf3 0cbf 8b2d e03e b59b 0d3f
000000e0: 6f7d fcbe b6b2 003f 2b2a 12bf

exp_avg f4 [59, 132]
0.00019902448 -0.0001301144 -0.0006058874 0.00027036064 0.000357043 0.0009609381 -7.745674e-05 -7.326835e-05
-0.0005272301 2.8830056e-05 -5.9967075e-05 -8.096184e-05 -4.8220692e-05 -5.4603766e-05 -0.0005259448 -0.0005650288
-0.00013466862 -0.000112728725 0.00037239274 0.0002581315 -3.62625e-05 -0.00035016474 3.2850374e-05 -0.0005735424
1.2826253e-05 1.2223611e-05 4.0265706e-05 8.2260405e-05 -0.00031076587 8.888574e-06 4.1190422e-05 1.9578787e-05
0.00020401532 0.00027691276 -3.8785893e-06 5.913189e-05 0.00013245938 -0.0008730061 -0.00033871862 -7.36553e-05
0.00021949058 -2.4364677e-05 0.00020719288 -0.00011568409 -8.396998e-05 3.7512098e-05 -1.1849351e-05 -4.3222433e-05
-0.00018139482 6.719087e-05 -0.0005062292 0.000641145 0.0009495928 -9.3380775e-05 -9.208749e-05 -0.00038906597
0.0 0.0 0.0 0.0 0.0 0.0 0.0 0.0
0.0 0.0 0.0 0.0 0.0 0.0 0.0 0.0
-0.0008403204 6.4472e-05 -0.00043376914 -0.00016754818 -0.0009603512 -3.9085495e-05 -0.00048546205 -0.0009329763
-7.351307e-05 0.0011797303 6.2770945e-05 0.00045100137 -1.1553611e-05 0.00057529233 -0.0006075444 1.4724092e-08
-0.00013575851 -0.00017294365 0.00021575873 -9.358651e-05 -6.383055e-05 3.8101334e-05 -0.0003247057 0.00026640267
0.000356516 9.491669e-05 9.095708e-05 9.25898e-09 -0.0007345144 -0.00024015014 -0.0011079689 0.00072775286
0.0 -0.0002421602 -0.000118829805 6e-45 6e-45 -0.00018142574 -0.00042779522 0.00020552582
-0.00028299354 0.00041283228 9.899803e-05 4.3744738e-05 1.9728099e-05 0.00031977857 -5.506989e-05 0.001903677
0.0 0.0 0.0 0.0 0.0 0.0 0.0 0.0
0.0 0.0 0.0 0.0 -0.0005445847 -0.00022961681 0.00011834141 -0.0001884464
-0.0013066293 -0.0011687122 1.9354822e-05 4.3516502e-05 0.000400508 0.0003827226 2.3024402e-05 4.6151672e-05
0.0005529416 1.9297922e-05 0.00044667372 9.0443464e-05 0.00030336523 -0.00038935067 -0.00017781463 4.9816073e-05
0.00096891646 0.00019578378 -0.00017295519 0.0007501094 -8.177902e-05 -3.2044125e-05 -0.00018422207 -0.00013787532
0.00017868401 -0.00019988576 -8.933666e-05 0.00016740605 -0.00037230912 -9.536588e-05 -0.00020838276 0.0006236557
-0.00026740425 0.001092304 0.0002308676 0.000113979724 0.00062288134 -0.00026984228 4.8563717e-05 0.00017705148
9.172082e-06 6.0623646e-05 -0.00024930356 -0.0006748779 0.00013378843 -0.0003174387 0.0007981199 9.135315e-05
1.9184845e-05 2.5265063e-05 1.1451533e-05 0.00022430891 0.0 0.0 0.0 0.0
0.0 0.0 0.0 0.0 0.0 0.0 0.0 0.0
0.0 0.0 0.0 0.0 0.00066424906 0.00028973498 4.7616e-05 2.7380242e-05
0.0006042272 -0.00017299526 0.00021574326 0.00055193144 0.00055285275 -0.0013981682 -0.000217543 -0.00056162634
-9.096813e-05 -0.00022590582 0.00016717846 -4.7926304e-05 2.4778505e-05 7.880873e-05 -0.00029836004 1.8701745e-05
0.00021281512 0.00058393617 -0.00043103626 -0.00029856668 -0.00045655362 0.0004239014 4.0186198e-05 -5.2715044e-05
0.00047942542 0.00015474814 0.0010306896 -0.0005122174 5.0407885e-05 0.0005240659 2.8281644e-05 0.0007226019
-3.859234e-05 -3.2547596e-05 0.00033584435 -0.00017757778 0.00012102805 -0.0004544531 -0.00063898903 6.7424953e-06
-4.4369745e-06 -0.0003780291 7.405429e-06 0.00020537646 0.0 0.0 0.0 0.0
00000000: 3ab1 5039 516f 08b9 6ad4 1eba 31bf 8d39
00000010: 8031 bb39 77e7 7b3a 4570 a2b8 a5a7 99b8
00000020: d035 0aba 13d8 f137 2885 7bb8 0fca a9b8
00000030: 9340 4ab8 5906 65b8 8fdf 09ba 711e 14ba
00000040: d535 0db9 c668 ecb8 b53d c339 d355 8739
00000050: 9018 18b8 5196 b7b9 d2c8 0938 c759 16ba
00000060: 5630 5737 0214 4d37 f9e2 2838 3883 ac38
00000070: 4aee a2b9 2220 1537 e1c3 2c38 203d a437
00000080: f2ec 5539 9a2e 9139 d424 82b6 6204 7838
00000090: cbe4 0a39 73da 64ba 0b96 b1b9 6377 9ab8
000000a0: 0e27 6639 bf62 ccb7 ea41 5939 6c9b f2b8
000000b0: 0a19 b0b8 4f56 1d38 93cc 46b7 bc49 35b8
000000c0: cd34 3eb9 d3e8 8c38 77b4 04ba 8312 283a
000000d0: 18ee 783a 6cd5 c3b8 181f c1b8 8dfb cbb9
000000e0: 0000 0000 0000 0000 0000 0000 0000 0000
000000f0: 0000 0000 0000 0000 0000 0000 0000 0000
00000100: 0000 0000 0000 0000 0000 0000 0000 0000
00000110: 0000 0000 0000 0000 0000 0000 0000 0000
00000120: f348 5cba 2435 8738 826b e3b9 dfaf 2fb9
00000130: 14c0 7bba bbef 23b8 9d85 feb9 fb92 74ba
00000140: 072b 9ab8 2ea1 9a3a e5a3 8338 6174 ec39
00000150: 62d6 41b7 37cf 163a 9d43 1fba 3ef5 7c32
00000160: 665a 0eb9 3558 35b9 4b3d 6239 e043 c4b8
00000170: c4dc 85b8 ffce 1f38 433d aab9 f6ab 8b39
00000180: c4ea ba39 030e c738 36c0 be38 6d11 1f32
00000190: 6d8c 40ba d0d0 7bb9 4439 91ba abc6 3e3a
000001a0: 0000 0000 62ec 7db9 4434 f9b8 0400 0000
000001b0: 0400 0000 1a3d 3eb9 b449 e0b9 6b82 5739
000001c0: c05e 94b9 6971 d839 2a9d cf38 8e7a 3738
000001d0: c57d a537 f4a7 a739 d8fa 66b8 cd84 f93a
000001e0: 0000 0000 0000 0000 0000 0000 0000 0000
000001f0: 0000 0000 0000 0000 0000 0000 0000 0000
00000200: 0000 0000 0000 0000 0000 0000 0000 0000
00000210: 76c2 0eba 4bc5 70b9 102e f838 b299 45b9
00000220: 3443 abba 792f 99ba 2a5c a237 7d85 3638
00000230: 46fb d139 28a8 c839 8724 c137 fb92 4138
00000240: 48f3 103a f9e1 a137 882f ea39 77ac bd38
00000250: fe0c 9f39 c321 ccb9 c073 3ab9 9af1 5038
00000260: e2fe 7d3a 4f4b 4d39 4e5b 35b9 fda2 443a
00000270: c780 abb8 1e67 06b8 bc2b 41b9 a092 10b9
00000280: 205d 3b39 6d98 51b9 415a bbb8 b889 2f39
00000290: 7c32 c3b9 2bff c7b8 5281 5ab9 d37c 233a
000002a0: 6432 8cb9 a42b 8f3a 0d15 7239 6608 ef38
000002b0: dc48 233a 9e79 8db9 e5b0 4b38 e5a6 3939
000002c0: cbe1 1937 2546 7e38 f5b4 82b9 4aea 30ba
000002d0: 8f49 0c39 e76d a6b9 eb38 513a d994 bf38
000002e0: 24ef a037 4ff0 d337 f61f 4037 7734 6b39
000002f0: 0000 0000 0000 0000 0000 0000 0000 0000
00000300: 0000 0000 0000 0000 0000 0000 0000 0000
00000310: 0000 0000 0000 0000 0000 0000 0000 0000
00000320: 0000 0000 0000 0000 0000 0000 0000 0000
00000330: 0021 2e3a 92e7 9739 4ab7 4738 9fae e537
00000340: 0065 1e3a 1066 35b9 2439 6239 7eaf 103a
00000350: 52ed 103a bd42 b7ba 411c 64b9 1b3a 13ba
00000360: 25c6 beb8 22e1 6cb9 a04c 2f39 7a04 49b8
00000370: 6fdb cf37 1d46 a538 356d 9cb9 b1e1 9c37
00000380: 2027 5f39 4b13 193a b5fc e1b9 f188 9cb9
00000390: 975d efb9 153f de39 9a8d 2838 591a 5db8
000003a0: 645b fb39 e343 2239 3418 873a 5446 06ba
000003b0: 0e6d 5338 7861 093a 5e3e ed37 fe6c 3d3a
000003c0: 36de 21b8 b783 08b8 4414 b039 2c34 3ab9
000003d0: 71d0 fd38 aa43 eeb9 d481 27ba 983d e236
000003e0: 52e1 94b6 3532 c6b9 277c f836 535a 5739
000003f0: 0000 0000 0000 0000 0000 0000 0000 0000

exp_avg_sq f4 [59, 132]
9.336923e-06 1.7436826e-06 1.5216064e-05 2.2759219e-05 6.322618e-06 1.4961114e-05 4.129947e-07 7.521966e-08
1.1850898e-06 9.144208e-06 1.6257982e-07 1.9719376e-07 1.2628047e-06 1.2849678e-07 9.388613e-06 2.8767884e-06
1.0482844e-05 1.3557951e-06 1.0871264e-06 8.420777e-06 1.4724275e-06 8.41529e-06 2.3687076e-07 1.2804285e-05
7.267229e-08 7.56974e-08 2.820573e-07 7.99451e-08 8.141201e-06 2.5712947e-07 2.222899e-07 1.7388204e-07
1.4774807e-07 7.0504296e-07 1.810802e-07 1.6940128e-07 1.571763e-07 1.1480834e-05 8.427152e-06 2.589335e-06
1.1478681e-06 1.1077968e-05 4.150517e-07 1.6670716e-05 3.067147e-07 7.456334e-06 6.9132275e-06 1.4173752e-05
4.3772393e-06 6.7182737e-06 3.3648794e-06 5.9073095e-06 7.752101e-06 2.0939915e-07 2.3680491e-07 1.2166387e-05
0.0 0.0 0.0 0.0 0.0 0.0 0.0 0.0
0.0 0.0 0.0 0.0 0.0 0.0 0.0 0.0
8.286449e-06 4.426511e-06 2.0775753e-06 2.1131173e-06 1.2070047e-05 1.2340708e-05 5.343147e-06 1.5679158e-05
1.5896816e-05 1.0014161e-05 2.4506494e-06 1.5254853e-05 1.2763917e-07 3.7004197e-06 7.155254e-06 1.3795058e-07
2.5685063e-07 3.932534e-06 5.4239713e-06 3.3638594e-07 1.914496e-05 2.2181835e-06 3.5472356e-06 1.0837261e-06
2.5764479e-05 1.7143813e-05 2.4345206e-06 3.0197228e-08 2.1840312e-06 6.9433568e-06 7.339192e-06 8.490096e-06
0.0 2.6465564e-06 6.201064e-07 2.0852191e-08 1.9746664e-09 4.8815996e-06 3.3459835e-06 4.1150843e-06
3.01328e-06 1.6277897e-07 9.996708e-06 2.956913e-06 1.6702883e-06 1.8417492e-06 1.0521694e-07 1.0642862e-05
0.0 0.0 0.0 0.0 0.0 0.0 0.0 0.0
0.0 0.0 0.0 0.0 8.764312e-06 1.4824062e-06 1.2844363e-05 1.573837e-05
7.97454e-06 1.2677023e-05 3.5507348e-08 8.207268e-08 1.0456909e-06 1.1430401e-05 2.3219059e-08 2.7961097e-08
9.981311e-06 3.5895283e-08 3.7654888e-06 1.9836725e-06 2.9296357e-06 7.1585255e-06 6.963695e-06 6.1973907e-07
8.286762e-06 6.0615753e-06 2.6400173e-07 6.86646e-06 2.549699e-07 7.9548585e-08 2.5537852e-07 2.7083198e-07
6.6004736e-06 1.2894682e-06 6.72135e-07 6.63557e-07 6.997125e-07 1.4105633e-07 6.8583176e-07 4.3648715e-06
6.9702764e-07 6.169877e-06 6.7084156e-06 9.320167e-06 3.6599884e-06 6.16201e-06 1.0793762e-05 7.513145e-06
1.8495513e-08 1.18929684e-07 5.4287957e-06 9.229215e-06 2.3211884e-07 6.669907e-06 1.992891e-06 6.648111e-08
4.0498625e-07 5.5802214e-08 2.9522235e-08 8.72681e-06 0.0 0.0 0.0 0.0
0.0 0.0 0.0 0.0 0.0 0.0 0.0 0.0
0.0 0.0 0.0 0.0 6.641654e-06 9.711331e-06 1.7693451e-06 7.9730694e-07
2.1048647e-06 8.410833e-06 3.3032575e-06 1.4136666e-05 2.4198825e-05 8.47871e-06 1.965904e-06 1.5955464e-05
3.1009546e-07 8.392927e-06 7.124786e-06 2.7606183e-07 4.717398e-08 1.4496045e-07 6.741758e-06 2.4496618e-08
5.263825e-06 8.1352755e-06 3.5253586e-06 1.0255104e-06 1.1744384e-05 9.914858e-06 3.9883707e-06 5.8789258e-08
1.8390376e-06 5.817828e-06 6.111408e-06 4.1845265e-06 1.3084362e-07 1.859602e-06 4.0602348e-08 4.0895666e-06
6.004556e-08 4.2267675e-06 2.622542e-06 5.3702897e-06 2.8746672e-06 7.785864e-06 8.3349405e-06 1.6754743e-06
7.9395306e-07 1.5606123e-06 1.6024142e-08 1.955066e-06 0.0 0.0 0.0 0.0
00000000: c7a5 1c37 7a08 ea35 7f48 7f37 0deb be37
00000010: e026 d436 7f01 7b37 8fb9 dd34 7288 a133
00000020: 600f 9f35 136a 1937 9a91 2e34 35bc 5334
00000030: a47d a935 edf8 0934 c983 1d37 d90e 4136
00000040: 79df 2f37 c4f8 b535 61e9 9135 f646 0d37
00000050: 39a0 c535 652f 0d37 8a56 7e34 fcd1 5637
00000060: 0410 9c33 168f a233 a96d 9734 49ae ab33
00000070: 3196 0837 9b0b 8a34 95ae 6e34 55b4 3a34
00000080: aea4 1e34 2f42 3d35 f26e 4234 abe4 3534
00000090: 4bc4 2834 ce9d 4037 5862 0d37 70c4 2d36
000000a0: 7310 9a35 83db 3937 45d4 de34 17d8 8b37
000000b0: 8caa a434 6c31 fa36 2cf8 e736 cdcb 6d37
000000c0: 33e0 9236 886d e136 30d0 6136 6737 c636
000000d0: 050f 0237 33d7 6034 7044 7e34 3c1e 4c37
000000e0: 0000 0000 0000 0000 0000 0000 0000 0000
000000f0: 0000 0000 0000 0000 0000 0000 0000 0000
00000100: 0000 0000 0000 0000 0000 0000 0000 0000
00000110: 0000 0000 0000 0000 0000 0000 0000 0000
00000120: 0706 0b37 7187 9436 796c 0b36 14cf 0d36
00000130: 7580 4a37 f00a 4f37 4949 b336 bc86 8337
00000140: 275a 8537 7e02 2837 d675 2436 18ef 7f37
00000150: 300d 0934 ba54 7836 2a17 f036 911f 1434
00000160: 48e5 8934 36f4 8336 8fff b536 8898 b434
00000170: 7d99 a037 1adc 1436 0b0d 6e36 8c74 9135
00000180: cc20 d837 0fd0 8f37 bf60 2336 34b2 0133
00000190: 5f91 1236 fbfa e836 2e43 f636 af70 0e37
000001a0: 0000 0000 7e9b 3136 6375 2635 741e b332
000001b0: b3b2 0731 9fcc a336 8f8b 6036 4e14 8a36
000001c0: c237 4a36 58c8 2e34 89b7 2737 616f 4636
000001d0: ab2e e035 0532 f735 a0f3 e133 bf8e 3237
000001e0: 0000 0000 0000 0000 0000 0000 0000 0000
000001f0: 0000 0000 0000 0000 0000 0000 0000 0000
00000200: 0000 0000 0000 0000 0000 0000 0000 0000
00000210: 6f0a 1337 17f7 c635 1e7e 5737 e405 8437
00000220: 63ca 0537 66af 5437 be80 1833 ef3f b033
00000230: aa59 8c35 33c5 3f37 4073 c732 1a2f f032
00000240: 6875 2737 482b 1a33 9bb2 7c36 3c1f 0536
00000250: c29a 4436 4433 f036 afa9 e936 255c 2635
00000260: 5f07 0b37 8964 cb36 1fbc 8d34 7166 e636
00000270: cce2 8834 4cd4 aa33 f51a 8934 dd66 9134
00000280: a379 dd36 ca11 ad35 c46c 3435 4a1f 3235
00000290: e0d3 3b35 4575 1734 001a 3835 f675 9236
000002a0: 601b 3b35 d706 cf36 da18 e136 d05d 1c37
000002b0: 1f9e 7536 43c3 ce36 db16 3537 6d19 fc36
000002c0: 10e0 9e32 4966 ff33 0029 b636 2dd7 1a37
000002d0: 573c 7934 11ce df36 9bbd 0536 60c4 8e33
000002e0: e36c d934 2fab 6f33 1598 fd32 5d69 1237
000002f0: 0000 0000 0000 0000 0000 0000 0000 0000
00000300: 0000 0000 0000 0000 0000 0000 0000 0000
00000310: 0000 0000 0000 0000 0000 0000 0000 0000
00000320: 0000 0000 0000 0000 0000 0000 0000 0000
00000330: 60db de36 d9ed 2237 3c7a ed35 8406 5635
00000340: 4d41 0d36 411c 0d37 88ad 5d36 852c 6d37
00000350: 95fe ca37 c83f 0e37 f9ed 0336 19d8 8537
00000360: 327b a634 59cf 0c37 7211 ef36 a635 9434
00000370: 579c 4a33 6da6 1b34 4337 e236 a26c d232
00000380: ea9f b036 be7c 0837 3395 6c36 45a4 8935
00000390: bf09 4537 fe57 2637 d8d3 8536 797f 7c33
000003a0: dad4 f635 c336 c336 9810 cd36 cf68 8c36
000003b0: 057e 0c34 7097 f935 c162 2e33 1c39 8936
000003c0: 65f2 8033 a8d3 8d36 eefe 2f36 7032 b436
000003d0: 68ea 4036 08a0 0237 4cd6 0b37 dce0 e035
000003e0: 0a20 5535 3b76 d135 76a5 8932 c733 0336
000003f0: 0000 0000 0000 0000 0000 0000 0000 0000

exp_avg f4 [1, 59]
0.0018766101 -0.0037657307 0.003906477 0.002683892 0.0025617916 -0.0019474071 0.0022948543 -0.0024647992
0.0026259138 -0.0020670493 -0.0029620947 -0.0020183614 0.003869686 -0.0021413846 -0.0016760611 -0.002732105
0.0033541813 -0.0016643143 0.0031219008 -0.0017128804 -0.0014455118 0.00294557 -0.0023353326 0.0029641034
-0.0028812608 0.0030417684 0.0028663962 0.0027800477 -0.0021811852 -0.0034918792 0.0021584625 0.002891693
0.0025874344 -0.0022025907 0.0027755187 -0.0032728352 -0.0016132273 -0.002042646 0.0020452135 0.0029172557
0.0026815995 0.0025819414 0.0025010721 0.0022526933 0.0028264292 0.002545748 -0.0018973448 -0.002012458
0.0028949091 0.0021756075 0.003764885 -0.0020449744 -0.0009232963 0.0021892632 -0.0020378106 -0.001786787
0.0027049321 -0.0029261613 0.0028440775
00000000: 96f8 f53a 7aca 76bb e701 803b 3ce4 2f3b
00000010: bbe3 273b 2440 ffba 4465 163b 7888 21bb
00000020: 8617 2c3b 5577 07bb b41f 42bb 7c46 04bb
00000030: 8f9a 7d3b 7956 0cbb 47af dbba 1e0d 33bb
00000040: d3d1 5b3b 1f25 daba ce98 4c3b bb82 e0ba
00000050: 5477 bdba 770a 413b 610c 19bb 6741 423b
00000060: 89d3 3cbb 6858 473b 26da 3b3b 7631 363b
00000070: 37f2 0ebb 03d8 64bb fe74 0d3b 8f82 3d3b
00000080: f291 293b 5759 10bb 7ae5 353b 107d 56bb
00000090: ed72 d3ba eadd 05bb fd08 063b 6e2f 3f3b
000000a0: c6bd 2f3b ca35 293b 07e9 233b eca1 133b
000000b0: 9d3b 393b 90d6 263b 54b0 f8ba 71e3 03bb
000000c0: 84b8 3d3b a394 0e3b 4abc 763b fa04 06bb
000000d0: 5e09 72ba be79 0f3b ca8c 05bb 9f32 eaba
000000e0: 3b45 313b d7c4 3fbb b463 3a3b

exp_avg_sq f4 [1, 59]
2.3970711e-05 5.2853058e-05 3.8720296e-05 3.877172e-05 3.206509e-05 4.0599076e-05 3.0039851e-05 4.934153e-05
2.3285653e-05 4.9366077e-05 4.4558183e-05 4.4759538e-05 4.265782e-05 4.794889e-05 5.351358e-05 3.1521657e-05
2.719478e-05 4.511087e-05 3.9942002e-05 3.8733408e-05 3.5475667e-05 3.520115e-05 6.048539e-05 2.675219e-05
5.695897e-05 3.0232939e-05 2.4413555e-05 4.7066515e-05 3.6191155e-05 3.899384e-05 2.8268427e-05 2.6114698e-05
2.9067378e-05 6.679217e-05 2.7783619e-05 3.469799e-05 4.720194e-05 5.5165045e-05 3.0669613e-05 3.069317e-05
1.907726e-05 3.0190666e-05 3.383346e-05 3.0455072e-05 2.8952698e-05 3.0199377e-05 5.68324e-05 4.2951375e-05
2.3936153e-05 2.9364997e-05 3.739968e-05 5.1695602e-05 3.415593e-05 2.7779432e-05 6.5400796e-05 5.1093124e-05
3.3457254e-05 5.832204e-05 2.5378273e-05
00000000: b614 c937 8aae 5d38 9a67 2238 d19e 2238
00000010: a17d 0638 ed48 2a38 17fe fb37 10f4 4e38
00000020: 8f55 c337 6c0e 4f38 fce3 3a38 30bc 3b38
00000030: 7ceb 3238 bb1c 4938 c573 6038 1f36 0438
00000040: 5820 e437 6e35 3d38 6687 2738 ae75 2238
00000050: b5cb 1438 f2a4 1338 b1b1 7d38 e469 e037
00000060: 3ae7 6e38 be9c fd37 b6cb cc37 4969 4538
00000070: f5cb 1738 518d 2338 fc21 ed37 e310 db37
00000080: b8d5 f337 c612 8c38 de10 e937 af88 1138
00000090: b2fa 4538 0461 6738 3fa3 0038 8abc 0038
000000a0: 1b08 a037 f641 fd37 67e8 0d38 c579 ff37
000000b0: 72df f237 ab54 fd37 535f 6e38 b026 3438
000000c0: 7fca c837 da54 f637 9add 1c38 bbd3 5838
000000d0: a742 0f38 e007 e937 c927 8938 d34c 5638
000000e0: 7454 0c38 d09e 7438 6de3 d437
