production_models/2022-12-16-145840_448790/best.ckpt (torch, 166606 bytes, 21 tensors)

encoder.W_i.weight f4 [46, 94]
00000000: 25d6 95ba 63e9 bb3c 0d1a 36bd b02f d33d
00000010: 2ff1 b03d b7df a7bd 881d 0dbe 9408 973c
00000020: 7fdd 773d 82db c9bd 924a b2bd 7c1b b4bd
00000030: f22e 863d caf1 94bd 9ade 363c 0b6b f13d
00000040: b6eb a93c a22c 31bc 4356 8b3a c546 5bbd
00000050: d52b 843d 133d 1a3c a299 903c c7b5 80bd
00000060: 129f 61be 11b0 843d b213 8ebd e4b1 94bc
00000070: d712 1abd 77a4 b3bd 9ed4 0abd b7e2 273d
00000080: 4668 343d 8faf 5ebe d84a 033e 1b6d bf3d
00000090: 1ee5 86bc 7571 cbbd d272 153d 56b7 fdbc
000000a0: ecfb 51bd ec73 033d 520a f63c ba1c 653d
000000b0: f5d8 c6bd 4cea 943d aa5b afbd 6ad4 7f3d
000000c0: be7b 85bd f781 d4bd 4900 c83d bd96 a33d
000000d0: f491 07be e7b4 c2bc d3e7 9cbd aa44 463d
000000e0: 7a40 bfbd 731b c6bc 41e5 1d3c 454a 4d3c
000000f0: 8c77 fbbd 536e e2bb 55db 7abd 85ef 3c3c
00000100: db1c 11bc 7534 f8bc d1e1 85bd 33ed 3c3d
00000110: cf6d 023d 7370 c5bd 29b7 663c 26ed 41bc
00000120: ffca 50bd df12 f7bd ff16 97bd 8304 433e
00000130: 0aa1 46bb 0e83 a8bd d4d9 acbd d21f cf3d
00000140: 5f28 10bd 77c6 c13c ba7f 573c 103e b0bd
00000150: 3538 173d bf12 bcba 76ff 563e 9a37 05be
00000160: b172 f03c c428 653a d7aa 7abd 755d a4bd
00000170: 50a5 10bc 43a7 c8bd 91a2 1b3c 9bf7 883c
00000180: d4b9 a03d a2bc 98bd 4dd0 e5bd 0cf9 303e
00000190: 07b1 f5bd 8942 4abd e2d0 873e 1c2c 0b3e
000001a0: 829b 9f3d 6938 d33d 46d5 3b3b 7af2 af3c
000001b0: 1624 143e d122 e63d 3e84 2cbd be38 b93d
000001c0: d25a f8bc 28d9 04bc d5a4 c3bd 0c29 c43d
000001d0: 3b97 ae3d 8cd2 b03d c1d0 9ebd 51f1 73be
000001e0: e13a a53d 2d50 153d bd13 efbc 8c76 cc3d
000001f0: 1879 fabc a904 f03d c093 b63d 2f59 3e3e
00000200: ccca 823c 6861 4f3d 4d31 48bd eb42 413c
00000210: 4639 76bd 2305 a63d 5acb 8d3c 59e8 d43d
00000220: 0acd 03bc 2184 6d3d a72b 5cbd ce1f ae3d
00000230: 683f a8bc 1174 17bd bd24 15bb 4855 9bbd
00000240: 5053 9d3d 70db 893c 5dd1 a53d 3307 0ebd
00000250: 5c4a 543d 6a78 1d3e d27f 9bbd bfec b3bd
00000260: a360 dbb9 b325 3cbd 8d70 3b3e 58b3 213e
00000270: 3c43 93bd 90af 63bd ba43 9b3c f149 043e
00000280: 402b 78bb 6646 8dbc a5a9 1b3e be6a 81be
00000290: e554 053e a3ed e1bd 2e9b 7b3c 638c d23c
000002a0: a556 89bd f8e1 6cbe b814 873d a012 5ebd
000002b0: 3c92 b73d 5217 ad3d d354 81bd f3cd 93bc
000002c0: 1e7a ed3d abe7 113e 4676 d33c 4b92 db3c
000002d0: b1b6 be3d 1b6a 88bd cdb0 f53b 656e 60bd
000002e0: b365 783d 0868 ba3d 8dc1 0f3d 5fca 0d3d
000002f0: eac0 a0bd a458 a53d c45a 30bd 4f96 dbbd
00000300: 8a94 3e3e 2fef 5dbe 0bcc f8bc 551d 9abd
00000310: 0da0 f13c 83be e73d 4a71 183e 1d93 e0bb
00000320: 0542 9fbb e519 8e3d 76ce d33d 5b16 833d
00000330: 7ddf 7abe 22b6 b93d 5dd5 bcbd 0ebb 913d
00000340: 3534 a9bd c958 60bd 2ffc 783b d494 aa3d
00000350: 13c9 48be b3f6 55be 5f4d b5bd 1317 143d
00000360: d682 cf3c d315 f3bc 863d ca3c da58 e73d
00000370: 15b4 2b3d 06d7 a53d 8627 74bd ffdf 1d3d
00000380: 61bc 04bd d7ca 26bd b47d 893d 4c1d d23d
00000390: 758d 52bc d1e9 823d 094a b83a 717e 3b3d
000003a0: 2c06 143d 3ec1 a33d dcba c23c 4236 c13d
000003b0: d1c6 1e3d aa7f 863c bcc3 81bc 6944 a9ba
000003c0: dc20 3cbc db24 403d d9e8 4bbc 7cdf 563c
000003d0: 704a 413b 7741 153d d964 1a3e 2fe3 253d
000003e0: a910 83bc 040a 74bd 6804 aa3c d614 c93d
000003f0: c9cf cdbd 7f78 303d 56a4 e83d 5e6e cb3c
-0.0011431618 0.022938436 -0.044458438 0.1031183 0.08639752 -0.08196967 -0.13780797 0.018436708
0.06051397 -0.09856321 -0.087056294 -0.08794305 0.06551923 -0.0727268 0.011161471 0.11787995
0.020742279 -0.010813864 0.0010630566 -0.053534288 0.06453673 0.009413975 0.017651383 -0.06284671
-0.22033337 0.064788945 -0.0693735 -0.018151231 -0.037615623 -0.087716036 -0.033894174 0.040987696
0.044044755 -0.21746658 0.1282152 0.09346982 -0.016466673 -0.099337496 0.036486454 -0.03097121
-0.051265642 0.032092974 0.030034218 0.0559356 -0.0970935 0.07271251 -0.085624054 0.062458433
-0.065177426 -0.10376351 0.097656794 0.079877354 -0.1323927 -0.023767902 -0.076614045 0.048405327
-0.0933847 -0.02418301 0.009637178 0.012529914 -0.12278661 -0.0069101243 -0.061244328 0.011531715
-0.008856977 -0.030298451 -0.06537212 0.04612465 0.031843003 -0.096405886 0.014081755 -0.011836326
-0.050974842 -0.12064146 -0.07377433 0.1904469 -0.003030839 -0.08228122 -0.08439985 0.10113491
-0.03519475 0.023654206 0.013153011 -0.086055875 0.036918838 -0.0014348848 0.20995888 -0.13009492
0.029351564 0.0008741731 -0.06119808 -0.08025638 -0.008828476 -0.09797528 0.009499208 0.01671963
0.07847944 -0.07457854 -0.11221371 0.17282504 -0.11996656 -0.04937986 0.26526552 0.13591045
0.07793333 0.10313494 0.0028661056 0.021477927 0.1446689 0.112371095 -0.042118303 0.09044026
-0.030316744 -0.008108415 -0.095529236 0.095781416 0.08524939 0.08633909 -0.077546604 -0.23822524
0.08067871 0.036453415 -0.029184217 0.099835485 -0.03057532 0.11719639 0.089149 0.18588708
0.015965842 0.050630003 -0.048875142 0.01179574 -0.060113214 0.081064485 0.01730888 0.10395879
-0.008044491 0.057987336 -0.053752568 0.0850216 -0.020538047 -0.036975924 -0.0022757493 -0.075846255
0.07681906 0.016828269 0.080965735 -0.034674834 0.051828727 0.15377966 -0.07592739 -0.0878539
-0.00041842935 -0.04593439 0.18304653 0.1579107 -0.07190558 -0.05558735 0.018953193 0.12918831
-0.0037867576 -0.017245483 0.15201433 -0.2527675 0.13020666 -0.11031654 0.015356822 0.025701707
-0.06705979 -0.23133075 0.06595749 -0.05421698 0.08963439 0.084517136 -0.06315007 -0.01804254
0.11595558 0.1424853 0.025813233 0.026803156 0.09312189 -0.06660863 0.007497883 -0.05479278
0.060643863 0.09101874 0.035096694 0.034616824 -0.078492954 0.080735475 -0.04305531 -0.107220285
0.1861135 -0.21673273 -0.030370733 -0.07525126 0.029495263 0.11315634 0.14886966 -0.006853475
-0.004860165 0.06938533 0.10342114 0.06400748 -0.24499317 0.09067942 -0.09220383 0.07115756
-0.08261911 -0.054772172 0.003799211 0.08329168 -0.19607954 -0.2089489 -0.08852648 0.036154818
0.025330942 -0.029673493 0.02468754 0.11296244 0.041919786 0.08097653 -0.059608005 0.038543697
-0.032406215 -0.040720787 0.06713429 0.10259494 -0.012851109 0.06392253 0.001406015 0.04577488
0.0361387 0.079958424 0.023770742 0.09434177 0.038763825 0.016418297 -0.015840404 -0.0012914065
-0.011482444 0.046910148 -0.012445652 0.013114806 0.002949383 0.036439385 0.15077533 0.040499862
-0.015999155 -0.059579864 0.020754054 0.09818427 -0.100493975 0.043083664 0.113594696 0.0248329

encoder.W_h.weight f4 [46, 46]
00000000: b1df 583e e047 9e3c 22e3 f93d bcc2 aa3d
00000010: 78ec 963d c925 d1bd 96de 9ebe 3c8e 93bc
00000020: 46fe 683d c5dc fabc aa72 80be 7cff b9bc
00000030: ce21 32bd 022d f4bd 8ce6 02bd 4c4f 353d
00000040: a7d4 8e3d c5a6 73bd d3c7 293e 444b c5bd
00000050: f744 3ebe fe1d b93d 7a6e 13be b32a d2bb
00000060: e23d 2cbe 774e c93d 5e03 ffbd 6e2d 70bd
00000070: 973a 763c a745 e83d 01c1 9cbe 9fbc c5bd
00000080: d8dc bb3d adb0 0dbe 35df 1b3e 9cc3 213d
00000090: cf86 07bd 90a7 d33d b5cf 0bbe 7b27 98be
000000a0: 33a8 9f3d 89d3 4b3d 89c3 60be fa7d 903d
000000b0: 0e1e 00be f53d 193e ec49 c5bd 4f40 1b3e
000000c0: b486 3ebe 9433 023d 4ed7 e9bd 721d 403e
000000d0: aadf cfbd 5117 413d abdc c33d 1e8e 4bbd
000000e0: b5c7 893d e130 773d 854f e53d 4fde 913d
000000f0: 4820 4abd 9175 5e3d ef59 cdbd 5cfa b8bc
00000100: 1aba b03d 5848 cd3d d4cc bd3d 95ed e93d
00000110: 0630 93bd 65d0 4bbd 9f4a f83b 45b8 49bd
00000120: 6b57 3dbe 3487 e4bd 995b fd3d 58e8 e03c
00000130: c7e0 80bc ce60 03be 4068 c83d 7bbd 023e
00000140: d616 f8bd 28cc dfbd ec41 11be 80ee 113e
00000150: 4328 2dbc 76ea a1bd d660 383e 4665 fa3c
00000160: ad05 61be a4a3 ad3c 6512 113d 57e2 c43d
00000170: 7e69 8abd 8628 8fbd 05b3 663e 74c5 1fbc
00000180: 7e3e a7be 9b18 413e 0bdd 86be 345f f43d
00000190: 639f ef3d b8b2 c93b e83f 05be 1076 ec3d
000001a0: 1a03 ad3b 0676 f9bb f806 0e3e 77f1 76bd
000001b0: 2b2f b63d 7c3a 7abe 8c6d 883d a91c 7ebb
000001c0: 92ed c13d 5c44 a6bd ad7e a7bd 6e12 80bc
000001d0: 7112 7f3d 966b 283e 5d14 ba3c b931 4ebc
000001e0: b000 a7bd 8556 303e 8f31 21bd dc2a 653c
000001f0: 7074 5a3a 5958 dcbd dde3 a3bd 43c6 113c
00000200: 97af 1b3e 47dd 16be e91f aebd dac0 12be
00000210: fd96 213e 54e8 3abe 6bfe 1abe 4f6b cd3d
00000220: 296f 70be a8b3 293d a42b 6d3d ad81 b13c
00000230: e8c6 a2bd 18cb 4cbe 0b13 d5bd 832c c13e
00000240: 356a c1bd 55e8 98bd be04 1ebe cec0 3b3d
00000250: fb6d 353d 927b debd fbc9 50be e796 1bbe
00000260: 1710 843e 6f3e 30bc 3316 4ebc 139c 9abd
00000270: 3487 4fbe dc17 24bd 83ec 6abd 1515 b3bd
00000280: 06a4 a63c fb2c 62bc aa05 333e eebf 583e
00000290: a235 84bc 00c2 203d 5c2c ebbb 3bc9 6c3e
000002a0: 10ef bcbd a9c1 873d 6f48 c5bd 6ce8 32be
000002b0: eb87 0bbe 4a46 2d3e 82c3 3b3e b366 07be
000002c0: d6a7 79bc 7951 16be eb36 353d 3aed 02be
000002d0: 2641 4c3b e6da 903e ff61 b23c 965f 03bd
000002e0: af08 27be cc72 bd3c baca 5fbe 87e7 9f3d
000002f0: 1165 51be 080f 0bbe 8871 1e3e 390a f6bd
00000300: e1c4 69be 11b0 a33d d6b5 92bc f94f 0fbe
00000310: 51e7 e6bd 71ec b43d b548 61bd 8b24 653d
00000320: bfbe cbbc 6233 cebd c637 fa3d c772 3dbe
00000330: 177e 84be cc74 1fbd 24e3 29bd f859 67be
00000340: 5e7f c23c c688 003e ff4a 38bd 1057 cd3b
00000350: fd58 90be 66a9 47be 01e6 843c a069 87bc
00000360: aece 4a3d fc7c 6b3d 40b9 f0bc 3520 11bd
00000370: 12d7 273d 148c fabd 3f9f 5f3d 5eb2 76be
00000380: 1a11 b33b e9ca 64bd 574d 3e3d c314 abbd
00000390: c880 1bbe c890 7a3d c84f a53c 7a75 bcbe
000003a0: 7687 833d 3881 a2bd eab4 10be 07a9 763d
000003b0: 14b0 53be f45c debd 455a 05bd 1eba 84be
000003c0: 7924 30be 736f c53d a3d9 b23d 7589 b43d
000003d0: 2357 443e 6dec 34be 0d51 e03c 5bfa 2f3d
000003e0: 6dba 18bd b034 f8bd 443e 903d 75fa debd
000003f0: a380 8e3d 209e 903d 8917 b6bd 5133 763e
0.21179081 0.019321382 0.12201525 0.08337924 0.073693216 -0.10212285 -0.31029195 -0.018012159
0.05688312 -0.03062285 -0.25087482 -0.022704832 -0.04348927 -0.11922647 -0.031958148 0.044265077
0.06974154 -0.059485216 0.16580133 -0.096334964 -0.18580996 0.09038924 -0.14397612 -0.0064137815
-0.16820481 0.09829419 -0.12451814 -0.058637075 0.015028617 0.1134141 -0.30616 -0.09655117
0.09172982 -0.13836928 0.15221865 0.03949319 -0.033087548 0.103346944 -0.13653453 -0.2971762
0.07795753 0.049762283 -0.2194959 0.07055278 -0.12511465 0.14965041 -0.0963324 0.1516125
-0.18606073 0.03178747 -0.11418019 0.18761232 -0.101500824 0.047141377 0.095635734 -0.04969608
0.06727544 0.06034935 0.11196808 0.0712248 -0.049347192 0.05431134 -0.10026919 -0.022580318
0.08629246 0.10023564 0.092675835 0.11422268 -0.07186894 -0.049759287 0.007577255 -0.049248
-0.18490379 -0.111586004 0.123709865 0.02745454 -0.015732182 -0.12829897 0.09785509 0.12767594
-0.121137306 -0.109276116 -0.14185303 0.14251137 -0.010568681 -0.07906048 0.1800569 0.030565869
-0.21974821 0.021196194 0.035417933 0.096134834 -0.06758402 -0.06990151 0.22529228 -0.009751666
-0.32664865 0.18857042 -0.26340517 0.11932221 0.117003225 0.006155338 -0.1301266 0.11545956
0.0052799108 -0.0076129464 0.13869846 -0.060288873 0.08895715 -0.24436373 0.066615194 -0.0038774407
0.09469141 -0.08118507 -0.08178458 -0.015633788 0.062273446 0.16447291 0.022714788 -0.012585097
-0.08154428 0.17220505 -0.039353903 0.013987269 0.00083333906 -0.107590385 -0.08002446 0.008897367
0.15203701 -0.14732848 -0.0850218 -0.1433138 0.15780254 -0.18252689 -0.15136115 0.10030233
-0.23479904 0.0414311 0.057902947 0.02166828 -0.079480946 -0.19999349 -0.10404023 0.37729272
-0.094440855 -0.07466189 -0.15431497 0.04583817 0.04429434 -0.10863413 -0.2038955 -0.15194283
0.25793526 -0.010757073 -0.012578535 -0.075493 -0.2026642 -0.040061817 -0.05735446 -0.087442555
0.020341884 -0.0138046695 0.1748263 0.21166965 -0.016138855 0.039247513 -0.007176919 0.23123638
-0.09225285 0.066287346 -0.09632956 -0.17471474 -0.13626067 0.16921344 0.18336299 -0.1322277
-0.015237769 -0.14679517 0.044241827 -0.12785807 0.0031166761 0.28292006 0.021775244 -0.03207358
-0.16311906 0.023126028 -0.21854678 0.07807832 -0.2044871 -0.13579953 0.15472996 -0.120136686
-0.2282901 0.079925664 -0.017908972 -0.13995351 -0.11274589 0.0883416 -0.05500098 0.055943053
-0.024871228 -0.10068394 0.12217669 -0.18500815 -0.2587745 -0.038929746 -0.041476384 -0.22592914
0.023742374 0.12552175 -0.044993397 0.006266482 -0.28192893 -0.19498214 0.016222956 -0.016529858
0.04951351 0.05749224 -0.02938521 -0.035431106 0.04097659 -0.12233749 0.05459523 -0.24091479
0.005464685 -0.055857573 0.046460476 -0.08353569 -0.15185845 0.06117323 0.020179644 -0.36808378
0.064223215 -0.07934803 -0.14131513 0.06021979 -0.20672637 -0.10857573 -0.03255679 -0.25923246
-0.17201413 0.09640398 0.08732917 0.0881528 0.19173865 -0.17668314 0.027382398 0.042963367
-0.037287164 -0.12119424 0.07043126 -0.10887615 0.06958129 0.0706141 -0.08891208 0.24043013

encoder.W_o.weight f4 [46, 116]
00000000: 82db ba3d 660b 9a3c c44b 0e3c 7225 1a3b
00000010: 762f 54bd 533c 18be 1c64 4cbd f393 2fbd
00000020: 860a 13bc bdbf d33d eab3 7c3e 2d4e 503d
00000030: e076 78bd 98db 84bd 6603 0239 f2a4 9ebd
00000040: 88af 61bd b96b 75bd 582e f43b c591 37bd
00000050: 2dcb 2a3c fb7b 863d dea2 f4ba 51a4 013c
00000060: 5b1a 15be 9acd 763b b19a b1bd ec9f 073c
00000070: 905f 9fbd f456 a83d 88ef 323d 4ca3 01bd
00000080: f43c 243d dddb a13d a03c 583d 4a83 9cbd
00000090: 264a 2f3d 660d 19bd f206 bcbd 5171 36bd
000000a0: 2e12 3c3d c454 bcbb a2cd 8dbd 3dc9 b7bd
000000b0: 037b aa3d bd8f a0bd b1d5 54bd fad2 bb3c
000000c0: c972 8a3d c3ed 0dbd 5d7f 943c 3b2f 913d
000000d0: 576b 3a3d 1e22 be3d 83bb ae3d 01b3 85bc
000000e0: c921 bcbd 1b9e a73c 702c cf3d 9fe7 c6bc
000000f0: 0797 073e e6a5 e7bb 4ee9 673c d781 85bd
00000100: ba5a ad3d 1e21 c93d bc67 473d 96f2 a33d
00000110: 97cf fdbc 8b23 84bd 4b90 a1be 58b5 e53d
00000120: e1eb d23d 2423 543d ee71 8d3d 6601 89bc
00000130: 0734 3c3d ef6f 0bbd 72e2 c13d f353 573d
00000140: 7915 f7bd 7411 1c3d 01d3 1e3d 1312 49be
00000150: 8eb7 9dbd 8625 ccbc b02c 843d 1042 d33d
00000160: 1222 a33d e4e5 35be e79b 80bc 8947 823d
00000170: 6d03 823d 0c10 01be cc9f 033e f47e f4bd
00000180: 2d5d 433d b546 51bd e366 56bd f203 c43d
00000190: a3fb 9f3d 15a7 fcbd d4c6 eb3d 84bf 2f3c
000001a0: 9a03 92bd 17f4 b93d 7a3b 7b3d 2a11 9b3d
000001b0: 3708 12be 757c d33d 159f 2e3e e1be 2a3b
000001c0: ea47 26be 8fe0 0ebe 899e 02bd 74e3 193e
000001d0: d51e 5d3d 9064 52b8 cfe0 a4bd d9d9 ccbb
000001e0: 1094 0f3e 2218 053d 5bdb 1fbd 3618 69bd
000001f0: 593d ebbc 3c98 8fbd 29ef 95bd d6e8 45bc
00000200: 6c95 f8ba 1d78 a1bd c13d 9f3c ac5f 183e
00000210: ef26 87bd ac25 bcbd 1d03 46ba 1c00 86bd
00000220: f2c3 233c 562a 6ebd 9585 55bd 5567 7f3c
00000230: b36d 35bd 9636 05bd d62f bf3b 4b21 acbd
00000240: 67aa 6dbd 6218 efbd dd27 913d dfc4 973d
00000250: f05d 453d 626f f3bd 2ae1 423d 1dd9 223c
00000260: 52a1 9abd 2909 79bd 141f ae3d a4bd bcbd
00000270: 4c54 303d 4554 43bd cfe3 293d 6a42 823d
00000280: 01df d23c 432b adbd 9d53 92bd b993 a6bd
00000290: da78 4dbc 5762 c2bd b521 b63c 88ae 84bd
000002a0: 8ea5 f03d c196 83bd 6ee8 e8bc 7b21 e43c
000002b0: d24d adbd d072 98bd a832 52bd 3a29 c63b
000002c0: 2267 963b fde2 893c 7852 5b3c eccb 88bd
000002d0: 1214 f5bc e6c3 66bd c026 d83c 3273 983c
000002e0: 9568 10bd 9fbc 9f3d c0f5 b73d 9019 8ebd
000002f0: e5f7 943d 68b4 6b3b 0341 15bd ec9f 6b3d
00000300: 299c cbbb 345b 0d3d f688 ad3d 6c30 e33b
00000310: 3010 633d 02ec d33c a641 ae3d 7779 d63d
00000320: d365 403d c8a7 033d 56af 05be 9c6c 173b
00000330: 9301 25bd ffa4 f83d 7937 90bc 8c1a 4a3c
00000340: ad91 4dbc 11f3 6e3b f7b7 37bd eabd 173c
00000350: 35dc b8bc 2dfb 133d daa8 c63b 1911 793d
00000360: 9fee 9abd a6f5 f4bc bf40 15bd dce0 1fbd
00000370: 1a14 f4bd f5b6 5a3a 6670 663b b36e 24be
00000380: 0692 543c 6339 a1bc 1a0c 04bd 7132 a13d
00000390: 2a35 843d cd21 563e a8bd f1bc 7f02 be3b
000003a0: d815 80bd 13d1 6dbd 5026 cf3c 9ab9 2ebe
000003b0: 10d1 9abd 306e 90bd 391a e6bc 65f5 0e3b
000003c0: b890 a03c 090d b8bd c7cd a7bd 3325 15bd
000003d0: 2368 793d 2bee 51bd 457c a2bd 2f61 c23d
000003e0: 0064 3b3d ca88 1d3b e693 7dbd d56f a9ba
000003f0: 9f9a 783d 6826 333d db6b 873c 0f5b 1a3d
0.09123899 0.018804263 0.008685056 0.0023520854 -0.051803075 -0.14866762 -0.04990016 -0.042865705
-0.008974677 0.103393055 0.24678007 0.050855804 -0.060660243 -0.06487197 0.00012399032 -0.077463046
-0.05509904 -0.059917185 0.0074518137 -0.04481675 0.010424417 0.06566616 -0.0018664261 0.007912711
-0.14560835 0.003765917 -0.08672083 0.008277874 -0.07781899 0.0821971 0.043685466 -0.031649873
0.040097192 0.07903264 0.05279219 -0.07642229 0.042795323 -0.037366293 -0.09181012 -0.04454166
0.045915775 -0.0057474095 -0.06923987 -0.0897393 0.08324244 -0.07839916 -0.051961605 0.02292775
0.06760175 -0.034650575 0.018127138 0.070890866 0.045512524 0.09283851 0.08531859 -0.016320707
-0.091861315 0.020461133 0.10115898 -0.024280367 0.13241206 -0.007069337 0.014154745 -0.065189056
0.0846457 0.0982077 0.048682913 0.08005254 -0.030982776 -0.06452092 -0.315554 0.11216229
0.102988966 0.051791325 0.06906496 -0.0167243 0.045948055 -0.034042295 0.09467019 0.052570295
-0.120646425 0.038102582 0.038775448 -0.19635801 -0.07701026 -0.024920236 0.06453836 0.10315335
0.07965483 -0.17763478 -0.01569934 0.063613005 0.0634831 -0.12603778 0.12853926 -0.11938277
0.04769628 -0.051092822 -0.052344214 0.09571065 0.07811668 -0.12336556 0.11512533 0.010726813
-0.07129593 0.090797596 0.06133602 0.07571633 -0.14260946 0.10326473 0.17052872 0.0026053714
-0.1623837 -0.1395285 -0.031889472 0.15028173 0.05398448 -5.0161558e-05 -0.08050691 -0.0062515554
0.14021325 0.032493718 -0.039027553 -0.056907855 -0.028715776 -0.07011458 -0.07321007 -0.012079438
-0.001896543 -0.07884238 0.019438626 0.14880246 -0.06599223 -0.09186873 -0.00075535645 -0.065429896
0.0099954475 -0.058145843 -0.052129347 0.015588601 -0.04429407 -0.03252276 0.00583456 -0.08404788
-0.058023836 -0.116745725 0.070876814 0.07410597 0.04818529 -0.11886479 0.047578014 0.009939459
-0.07550301 -0.06079975 0.085020214 -0.092158586 0.04304914 -0.047687788 0.04147702 0.06360324
0.025741102 -0.08455517 -0.07144854 -0.081336446 -0.01254102 -0.09491413 0.02223287 -0.06478602
0.11750327 -0.064252384 -0.028431144 0.027847996 -0.08462109 -0.07443774 -0.05131784 0.006047395
0.004589931 0.01683187 0.013386361 -0.0667952 -0.029916797 -0.056339167 0.026385665 0.018609617
-0.035255987 0.077996485 0.0898242 -0.069384694 0.07273845 0.0035965685 -0.036438953 0.05752556
-0.006213684 0.034510806 0.08473389 0.0069332626 0.05543536 0.025869373 0.08508615 0.10472386
0.046972107 0.03214243 -0.13055167 0.0023105508 -0.040284704 0.121408455 -0.017604576 0.012335431
-0.012546939 0.0036460797 -0.044853177 0.009261588 -0.02256594 0.03612821 0.006062609 0.06080732
-0.075650446 -0.02990229 -0.0364387 -0.039032802 -0.119178966 0.0008343303 0.003516221 -0.16057853
0.012974268 -0.019680684 -0.032238103 0.07870949 0.06455453 0.20911331 -0.02950938 0.0057986374
-0.06254166 -0.058060717 0.025286824 -0.17062989 -0.07559407 -0.070522666 -0.028088676 0.0021813747
0.019600257 -0.08986861 -0.08193546 -0.03641243 0.06089033 -0.051252525 -0.07933859 0.094911925
0.045749664 0.0024037831 -0.061908625 -0.0012927005 0.060694333 0.0437378 0.016530922 0.037684496

encoder.W_o.bias f4 [46]
00000000: a541 cbbd c036 4bbb d095 00bc 484b d03c
00000010: da16 86bd cd05 223d 7338 bfbc 2322 17bd
00000020: 03c7 763d 94e6 e63c 1a54 09ba 38b1 d1bd
00000030: bc1d 94bd 4c3a 753d 7df1 c1bd 0684 36bc
00000040: b16b d2b9 4249 9fbd 89d6 453d 7471 9abc
00000050: bd45 0d3d 993a 5f3d 86b0 473d 656a 8c3d
00000060: 8da1 89bd 5a7f 18bb f540 29bb ce53 32bd
00000070: bf50 81bd 0be0 17bd 2626 f1bb 5872 9e3b
00000080: 945b dabd 45ad 473d 8fb2 823b 42f1 1a3d
00000090: 7992 843d b06d e0bd 431b c43c 1955 053d
000000a0: c180 20bd 9cc8 9f3d 874f b9bd 6779 3ebd
000000b0: b52a 1d3d 8ea9 79bd
-0.0992463 -0.0031007975 -0.007848218 0.025426522 -0.06547327 0.039556313 -0.023342347 -0.03689779
0.060248386 0.02818612 -0.00052386674 -0.1023888 -0.07232234 0.05987005 -0.09469888 -0.011139875
-0.00040134558 -0.07777645 0.0483003 -0.018852927 0.034490336 0.054499242 0.04875233 0.06856231
-0.067202665 -0.0023269267 -0.002582607 -0.043536954 -0.06314229 -0.0370789 -0.007359284 0.004835408
-0.106619984 0.048749227 0.003988571 0.037827738 0.0647325 -0.10958421 0.02393878 0.03255186
-0.03918529 0.07801935 -0.09048372 -0.046502497 0.038370807 -0.060952716

decoder.ffn.1.weight f4 [16, 46]
00000000: 3892 043e 1acd d0bd 2eda 4fbd 38c1 8aba
00000010: 5f8f 2d3e 8276 753d d5b8 b23d ff73 da3c
00000020: f834 e0bd f93b 5e3c 4ec0 d0bc 652b 54bc
00000030: 062e cabd ae0a 2d3e 770a d5bd 2614 0e3c
00000040: 9242 af39 f4b0 a7bd 18d4 2f3e de18 b33d
00000050: 17af ffba 9804 cabb cebd 873d 65ce 253e
00000060: d880 0bbe f0eb 30be d229 143e 4d90 10bc
00000070: eb91 8dbd 7554 a9bd 464a 0a3e 76da 72bd
00000080: a35c 0fbe 1b47 cdbc e946 2f3d 8d35 d2bc
00000090: 41f4 263e c562 303e 8149 183e 6072 06bd
000000a0: fa7d cc3d d298 a13c 6c0e 863d debe e5bd
000000b0: 5606 a4bd 0088 3cbd be91 ee3d 3fac 0ebe
000000c0: 0352 893d 9502 ec3d 3e46 f2bd 0f06 803c
000000d0: 6c22 c33c 1f03 623d 1150 263e 4e43 89bd
000000e0: 5797 8b3b 09b0 b6bd 764b 343d 7f97 40be
000000f0: 97a2 1c3e 9d30 1c3e b052 743d 3d26 2a3d
00000100: 55b6 d7bc 21e3 83bd df0e 343d 0278 9f3d
00000110: 3c50 103e da34 81be 05c2 f33c d09f df3d
00000120: 873f ca3b bbd3 3fbd 9708 a43d 224a 163e
00000130: 4553 0f3e c12e 76be e967 3dbc d26d 293e
00000140: 376d 1abd b420 38bd 0127 06be 2a72 203d
00000150: 4df3 e3bc 927c 623e 12f6 e2bd e3f2 d4bc
00000160: 6525 9e3d 2fa5 bdbd dbe4 543e 64c4 e73b
00000170: 2bd4 30bd 084d 883d 2820 d6bd 0245 dc3d
00000180: 81f0 a43d dffa 493d 936d 71bd b7e7 f8bd
00000190: 0ad0 f2bd a9a9 8bbd daf0 3a3e de59 2c3e
000001a0: 1322 5ebe 0e95 2f3e d176 8bbd fe9a 51be
000001b0: f042 05be 556e 07be 49f8 54bd 2312 00be
000001c0: 9665 113e 0257 54bc e573 48be c040 433d
000001d0: 81ae 53bd 290f 68be 0b5a 853d c376 abbd
000001e0: 9480 1bbe ab1c c03d 4451 d2bd 0bbd 273c
000001f0: 9d63 b5bd a788 903d 2061 f03d 08b5 f7bd
00000200: 4c80 1d3e aeca 403b 70f1 a03d 57a4 533d
00000210: 73fa 4cbd b855 1c3d 895f b9bd bfbc 483e
00000220: 60f6 ba3d a70d 8cbc 8aea 80bd f418 a63d
00000230: 4d67 bb3d 0d3c 67bd 9036 283e 7971 f63d
00000240: f909 18be 2367 ca3d 7da3 263e de8b 823d
00000250: 93dd f83d a185 2f3e a503 04be 41f6 203e
00000260: b9e2 c1bd 92d6 513d 633d 24be 4b6a c63d
00000270: 5d93 203d ce88 003e 54d1 e43d 887b 843d
00000280: 5678 57be b16d e53b 4983 28be 82ca 3ebd
00000290: 9eb6 f33d 2197 763d 4ddb 21be fa72 55be
000002a0: 4bc2 633d 835e 603d aecf c6bd de5d 643d
000002b0: 9fe9 df3d e8ce febd 1857 0b3e a117 f53d
000002c0: 327f 36bd a361 20be 20a5 383d a2db 26be
000002d0: caae 143e 2232 553c 7756 42bd c347 cabd
000002e0: c5e1 e1bc ba55 7fbd da93 d13d 74f2 073e
000002f0: c4db 043c d2ce eebd 730d d83d f9be 14be
00000300: e12b cebd e32c c43d 78ce 39bd cd82 9bbd
00000310: 83cf 36be 17c6 00be 31c2 28be 8258 6dbe
00000320: cce1 8b3d 7a77 a2bd bd01 9a3e 0765 3abd
00000330: c9cf 433d 0653 193e 086d e13d 77d8 1c3e
00000340: 4738 a4bc cc4f 96be 3c28 75bd 6ef7 a03d
00000350: 35fc 84bd f92d 363d be57 02be b855 c53d
00000360: 39b7 51bd 2a90 77bd b423 67bd 17f4 193d
00000370: 21b3 393d 8a01 263e 4d06 c53c 97f3 adbd
00000380: b627 973d eda6 783e 6e37 59bd 3441 abbc
00000390: f0ec 92bd 2cff 9bbc 0927 1abe 3325 f33d
000003a0: 9e0f 133e f0c9 443d 6a7a fa3c 270c b03d
000003b0: 00d6 ecbd 9e87 d9bd 4911 08bc efc4 533e
000003c0: 8cc7 dbbc 9fa4 a6bd c62d 58bd 2a29 073e
000003d0: 46fe 63be 25fe c8bc 212a c1bb d52c 94bc
000003e0: f0a2 6d3e 5672 bdbd f666 ebbc fb3e 313d
000003f0: 24de 6abe 5099 453d 24be a2bb 2730 88be
0.12946403 -0.1019537 -0.05074518 -0.0010586148 0.16949223 0.05992747 0.0872666 0.02666664
-0.10947603 0.013564103 -0.025482323 -0.012949799 -0.098720595 0.16898605 -0.10402387 0.008671796
0.000334282 -0.08188048 0.17170751 0.087449774 -0.0019507137 -0.0061650984 0.06627999 0.16192015
-0.13623369 -0.17277503 0.14469078 -0.0088234665 -0.06912597 -0.08268062 0.13504896 -0.05929037
-0.14000182 -0.02505832 0.042792235 -0.0256603 0.16304113 0.17225178 0.1487179 -0.03282392
0.099849656 0.01972619 0.065457195 -0.11218046 -0.08009021 -0.046028137 0.11648892 -0.13932894
0.067050956 0.1152393 -0.11829804 0.015627889 0.023820125 0.055178758 0.1624148 -0.067022905
0.0042599845 -0.08920295 0.044017278 -0.18807791 0.15296398 0.1525292 0.05964917 0.041540373
-0.02633206 -0.06439806 0.043959495 0.077865615 0.14093107 -0.25235635 0.029755602 0.10919154
0.006172124 -0.04683278 0.08009451 0.14676717 0.13996609 -0.24041273 -0.011560419 0.165458
-0.03770181 -0.044953063 -0.13100816 0.039171375 -0.027825976 0.22117832 -0.110820904 -0.025994724
0.07721976 -0.09260022 0.20790426 0.007072972 -0.04317109 0.066553175 -0.10455352 0.1075535
0.08053685 0.049311515 -0.05894239 -0.12153571 -0.118560866 -0.068194695 0.1825594 0.16831157
-0.21692686 0.17146704 -0.06809772 -0.20469281 -0.13013816 -0.13225682 -0.051994596 -0.12506919
0.14198908 -0.012960197 -0.1957546 0.047669172 -0.05168009 -0.22662033 0.06511315 -0.083722614
-0.15185767 0.09380468 -0.102694064 0.010237942 -0.0885689 0.07057314 0.11737275 -0.12095076
0.15380973 0.0029417682 0.078585505 0.0516704 -0.050043534 0.038167685 -0.09051425 0.19603251
0.091290236 -0.017096354 -0.06294735 0.08110228 0.091505624 -0.056453753 0.16427064 0.12033362
-0.14847554 0.09882953 0.16273303 0.06374334 0.12151637 0.17140819 -0.12892015 0.15718938
-0.09467072 0.05123002 -0.16039042 0.096882425 0.039203037 0.12552187 0.11172739 0.06468874
-0.21041998 0.0070016016 -0.16456331 -0.046579845 0.11900066 0.06020272 -0.15806313 -0.20844641
0.055605214 0.054777633 -0.097075805 0.05575358 0.109332316 -0.12441808 0.13607442 0.119673975
-0.044554897 -0.15662245 0.04507935 -0.16294721 0.14519802 0.013012441 -0.04744574 -0.09876969
-0.027573476 -0.062337615 0.102332786 0.13276082 0.008109037 -0.116605416 0.1054944 -0.14525975
-0.10066963 0.09578874 -0.04536292 -0.07593308 -0.17852597 -0.12575565 -0.16480328 -0.23178294
0.06830177 -0.079329446 0.3007945 -0.045506503 0.04780558 0.14973077 0.11007124 0.1531695
-0.020046366 -0.29357755 -0.059852824 0.078596935 -0.06493417 0.044477437 -0.12728783 0.0963549
-0.051200125 -0.06044022 -0.056430534 0.037586298 0.045336846 0.16211525 0.024050856 -0.08493727
0.07380621 0.24282427 -0.053031377 -0.020905115 -0.071740985 -0.019042574 -0.15053953 0.118723296
0.14361426 0.048044145 0.03057595 0.08596068 -0.11564255 -0.1062157 -0.008304902 0.20680593
-0.02682855 -0.08136868 -0.052778028 0.13199297 -0.22264966 -0.024535248 -0.0058949147 -0.018087784
0.23206687 -0.092503235 -0.028735619 0.043272953 -0.22936302 0.048241913 -0.004966514 -0.26599237

decoder.ffn.4.weight f4 [16, 16]
00000000: 47dc 493d 3cc0 14be 16d8 033e 573d 713e
00000010: e778 573e 4b66 8cbd 88d9 57be 6d84 543e
00000020: 6694 2ebe f902 383e 66d2 90bd c092 023d
00000030: ed8a 003e e72b 24be 5e5a 783e 55a1 813e
00000040: 0bee 5a3e 0de7 723e 568b 45be 8b11 d0bd
00000050: 1ab0 4ebe 46ce d33d 049f 613e 64c9 593e
00000060: 5ac1 2b3c ae91 09be 6fa8 82be 7655 f33d
00000070: 0e50 923e 4b72 d53d e04c 10be e055 74be
00000080: d6d5 123e 0b4b 03be 793c 6dbe d3e2 1ebd
00000090: 9a78 2fbe de9f 6ebe adc9 90bd 761b 303d
000000a0: ca59 f33b 1498 aa3d dee4 8e3d c861 05bd
000000b0: 59fd debd 1011 39be 3015 0bbd 416b 5abe
000000c0: 93e0 653e 2b70 b1bd 33ed b83d 5e23 c63e
000000d0: e434 f63e 941d a93e a7de 9bbd dac9 46bd
000000e0: 21b0 6b3c 6902 eb3d ff15 a3be ebd6 0dbd
000000f0: 542d 5e3d 5db0 1bbe fc58 52bd 4f4c bb3d
00000100: 2bb4 bfbd 01b6 6c3e d51d 07be e504 cfbd
00000110: 35a3 a4be 984d 91be bc5d 803e 0cf6 963e
00000120: c16f 983e dbab df3d f723 17bd b11a 2dbd
00000130: 7003 4f3e 39b0 9e3e 2f57 a0bd d9d6 a2be
00000140: a69d 5a3c 4520 033e b491 08be cb97 7b3e
00000150: 9fd7 34bd 6cf8 da3d f32a 20be 4826 17be
00000160: 0565 25bc c328 1ebc 0927 76bd ba9e b13c
00000170: 39f5 49bd 3d65 82bc caed 2d3e 3e01 f8bd
00000180: e737 b2bd 8fcf 77be abac 6fbe adb6 58bd
00000190: 2bc3 3bbe 1cbf 53be be38 aa3e d1f0 bf3d
000001a0: 7072 1e3e 9d82 83bd 9870 22bc e4e4 d13d
000001b0: 4c31 debd 03e2 853e 3697 c93d bc72 163c
000001c0: c785 c6bc 74f8 e63c 91ec 773d 5057 1abd
000001d0: 6a40 63be a3c3 fbbd 3f6b 0dbe 9ec5 13be
000001e0: ef7b 94bd 9837 2b3e 7ea5 493e a5d0 cb3d
000001f0: 3940 4abd d51c 143e 157c 7bbd 7ff9 92be
00000200: 13f2 0b3e 7b82 983e ed95 cdbd 466d 22be
00000210: dd29 8dbe 4fdb 54bd 0978 653e 1bb5 debc
00000220: 96be be3d a631 75bd 9d0c 6bbe 5e17 733e
00000230: 2fe6 5d3e 5ad1 503d 3e22 a5be 0a69 9dbc
00000240: ef5e 463e f462 4bbd ed31 ac3d c101 bdba
00000250: c4a9 1b3e 3ebb bc3e e131 13be f02a 09be
00000260: 9ebc 3cbb b441 94bd ecb0 cfbe 7913 443e
00000270: a272 6fbe bcd9 5bbe d3a1 d5bc cbfc 783d
00000280: d825 843e 1c26 82bd 7b80 e8bc 36cf 923e
00000290: 5e5b 613e 77d1 9e3e a876 8f3d 1a73 a83d
000002a0: 4da9 5dbd f12b 723e a4de 76be 8dd5 ad3d
000002b0: 1f41 72be 1046 41be f603 d23d 89b5 31be
000002c0: 80fc 72bd cef1 4fbe f606 2cbe 367a 063e
000002d0: 6a61 02be ee4a 3abe c89c f0bd a018 41be
000002e0: 3f39 89be 60f8 29bc f9dc 89be 099b 643c
000002f0: ca4d 5fbe dce9 d4bd 62b6 74be 9c63 b33d
00000300: d5a8 ce3d 6582 363d 1107 f7bd ecca 4a3e
00000310: 0b62 3d3e ae35 0c3e 0a1a 4fbe 0fe1 25be
00000320: df4f 1bbe 5254 a73d 45ef 51be 4512 073e
00000330: 5e90 513d 4007 a5bc d2ac 573e 67c1 0f3e
00000340: 9340 db3c 73d4 42be a561 733b 786e 61bc
00000350: 7d70 1ebe 8eb9 ff3d 4122 44be 509f 4dbe
00000360: c411 eabd 0447 bb3d b6c7 bd3c 4166 92bd
00000370: 897c 7ebe ecff 1c3e 36e2 43be 2429 733e
00000380: 96d0 4c3d 4115 0a3e e3c8 fa3d 4fd5 a93e
00000390: 55c1 623e fa7b 593d cbfc 61be 43ce 93be
000003a0: 9f94 113e 75b8 6e3d e546 84be e339 a0bd
000003b0: d8b6 8d3d b47d b3bd 393a 023e 2035 e0bc
000003c0: 0395 153e 0fb9 323d d195 373e c91f 78be
000003d0: ed67 a6be 715a c2bd 8027 8a3d 861e b83d
000003e0: 5b70 a03d 731a 43be d2a5 673e 20ff 3c3e
000003f0: be3a 1abe e3bf d93d 79e8 25bc a964 bcbd
0.04928234 -0.14526457 0.12875399 0.23558556 0.21042214 -0.06855448 -0.21079075 0.20753641
-0.17048797 0.17969884 -0.0707138 0.031878233 0.12552996 -0.16032372 0.24253222 0.253184
0.21379869 0.23720951 -0.19291434 -0.10159596 -0.20184365 0.10342078 0.22033316 0.2126823
0.01048311 -0.13434479 -0.2551913 0.11881535 0.28576702 0.1042219 -0.14091825 -0.23860884
0.14339384 -0.12821595 -0.231676 -0.038790535 -0.1713585 -0.23303172 -0.070697166 0.04299494
0.007426475 0.08329788 0.06977247 -0.032563955 -0.10888166 -0.18072915 -0.033955753 -0.21329977
0.2244895 -0.086639725 0.09029617 0.38698858 0.48087227 0.3303038 -0.07610827 -0.048532344
0.014385254 0.11475069 -0.3185272 -0.03462879 0.054242447 -0.15203996 -0.051354393 0.09145414
-0.09360536 0.23116304 -0.13194974 -0.101083554 -0.32155767 -0.28379512 0.25071514 0.29484594
0.2977276 0.10921451 -0.036899533 -0.042261783 0.20216155 0.30993822 -0.07829129 -0.3180454
0.01334325 0.12805279 -0.13336831 0.24569623 -0.044150945 0.10691914 -0.15641384 -0.14760697
-0.010094886 -0.009653273 -0.06009582 0.021682132 -0.04930613 -0.015917415 0.1698524 -0.12109612
-0.08702069 -0.24200271 -0.23405711 -0.05290859 -0.1833617 -0.20678371 0.33246416 0.09372104
0.15473342 -0.06421397 -0.00991454 0.102487355 -0.108492464 0.26148996 0.09843294 0.009182628
-0.024233712 0.028194644 0.06052834 -0.037680924 -0.22192541 -0.12293174 -0.13810442 -0.14430854
-0.07250201 0.16720426 0.19692037 0.09951905 -0.049377654 0.14464124 -0.06139763 -0.28705975
0.13666563 0.2978705 -0.10038362 -0.15861997 -0.27571002 -0.05196696 0.22409071 -0.027185967
0.09313695 -0.0598618 -0.2295403 0.23739383 0.2166984 0.050980903 -0.32252687 -0.019215126
0.19372152 -0.049654916 0.0840796 -0.0014420078 0.15201479 0.36861604 -0.14374496 -0.13395286
-0.0028798948 -0.072390944 -0.40564668 0.19148053 -0.23383573 -0.21469778 -0.02607814 0.060787957
0.25810122 -0.06354925 -0.028381577 0.28673714 0.2200751 0.31019184 0.07005054 0.08225079
-0.054116536 0.23649575 -0.24108368 0.08487997 -0.23657654 -0.18874383 0.10254662 -0.17354406
-0.059322834 -0.20307085 -0.1679953 0.13132557 -0.12732473 -0.18192646 -0.11748654 -0.1885705
-0.26801488 -0.010374159 -0.269264 0.013952979 -0.21807018 -0.10396168 -0.23897699 0.08759233
0.10090796 0.044557948 -0.12061895 0.19803971 0.18494432 0.13692352 -0.20224777 -0.16199134
-0.15167187 0.0817038 -0.2050143 0.13190563 0.05116307 -0.020145059 0.2106202 0.14038621
0.02676419 -0.19026355 0.0037137058 -0.013759248 -0.15472598 0.124865636 -0.19153692 -0.20080304
-0.1142917 0.091444045 0.023166519 -0.0714841 -0.24852194 0.15332001 -0.19129261 0.23746163
0.05000361 0.1348467 0.12245347 0.33170554 0.22144063 0.05309675 -0.22069089 -0.28868303
0.1421685 0.05828138 -0.25835338 -0.07823541 0.0691964 -0.0876421 0.12717523 -0.027369082
0.14607625 0.043633517 0.17928244 -0.24230875 -0.32501164 -0.094899066 0.06745815 0.08990197
0.0783393 -0.19053058 0.22621849 0.18456697 -0.15061471 0.106323026 -0.010126227 -0.09198887

decoder.ffn.7.weight f4 [1, 16]
00000000: 3de3 91bd 16f8 313e 8d5e b9bd ee43 70be
00000010: a11e 873e 47d0 12be dbb9 4c3e 4298 8b3e
00000020: 7cb9 503e b297 ebbe db7c 6fbe cc2c 3b3d
00000030: c854 75be 8232 a4bc 1cb0 a3be 5471 fb3d
-0.071234204 0.17379794 -0.09051237 -0.23463413 0.26390556 -0.14337264 0.19992773 0.272646
0.20383257 -0.46014172 -0.23387472 0.04569702 -0.23958123 -0.020043615 -0.31970298 0.12277475

exp_avg f4 [46, 94]
00000000: 0000 0000 0000 0000 e39c d5bb be80 9ebc
00000010: b503 8abb 5d40 450a 0400 0000 0000 0000
00000020: 4178 49b9 0400 0000 0000 0000 0000 0000
00000030: 0000 0000 0000 0000 1d26 283a f880 5ebc
00000040: c63b 33bc a17a d1bb 0000 0000 0000 0000
00000050: d5fb f7bc 0000 0000 0000 0000 a760 dcbc
00000060: f2ab c239 8a91 91bb 78d0 373a 0000 0000
00000070: 0000 0000 0000 0000 69ba d2bc b305 95bb
00000080: 0000 0000 18da 2cbc d6fd dabc 0000 0000
00000090: 0000 0000 bd49 83ba 0000 0000 1d26 28ba
000000a0: 0000 0000 0400 0080 0000 0000 0000 0000
000000b0: 0000 0000 0000 0000 0000 0000 0000 0000
000000c0: 0000 0000 1d26 28ba 0000 0000 0400 0080
000000d0: bd49 83ba 0000 0000 0000 0000 d05c d7ba
000000e0: 0000 0000 0000 0000 1d26 28ba 000e 343b
000000f0: c2be 47bb 78d0 37ba 0000 0000 0000 0000
00000100: 0000 0000 1d26 28ba bd49 83ba 0000 0000
00000110: 0400 0080 7eee a53a 70fc b1bc 1d26 283a
00000120: 0000 0000 3721 29bc 63d8 85bc 2706 aebc
00000130: f0a5 00bd 0000 0000 0000 0000 0000 0000
00000140: 0000 0000 0000 0000 7731 b1b9 1d26 28ba
00000150: 0000 0000 0000 0000 0400 0080 be0a 853a
00000160: 655f 80ba 0000 0000 0000 0000 0000 0000
00000170: 0000 0000 0000 0000 0000 0000 0000 0000
00000180: 5df1 ea3b a56c 9339 d107 95b9 1b3d 4a3a
00000190: 0400 0000 0000 0000 93b1 023a 7098 083b
000001a0: a397 dd39 0000 0000 0000 0000 0000 0000
000001b0: eae6 603b f205 713a ecaf d83b 51f3 a8b7
000001c0: 0000 0000 0000 0000 974d 333c 0000 0000
000001d0: 0000 0000 4d14 403c b058 abb9 d483 a73a
000001e0: 67e3 e2ba 0000 0000 0000 0000 06ef 603a
000001f0: 00eb e83b 9f24 433b 0000 0000 ab8d 8d3b
00000200: f254 643b 0000 0000 0000 0000 14af 0c39
00000210: 0000 0000 0000 0000 0000 0000 0400 0080
00000220: 0000 0000 0000 0000 0000 0000 0000 0000
00000230: 0000 0000 0000 0000 0000 0000 0000 0000
00000240: 0000 0000 0400 0080 14af 0c39 0000 0000
00000250: 0000 0000 14af 0c39 0000 0000 0000 0000
00000260: 0400 0080 14af 0c39 0400 0080 c507 0000
00000270: 0000 0000 0000 0000 0000 0000 0400 0080
00000280: 14af 0c39 0000 0000 0400 0080 8c14 b63a
00000290: 9cd1 1d3c 0400 0000 cea8 8439 d7cb 023a
000002a0: bebc 023c 9851 dfb9 a023 2a3c 0000 0000
000002b0: 0000 0000 0000 0000 0000 0000 0000 0000
000002c0: 31d2 5db8 0400 0080 0000 0000 0000 0000
000002d0: 0400 0080 53c2 043a 31d2 5db8 0000 0000
000002e0: 0000 0000 0000 0000 0000 0000 0000 0000
000002f0: 0000 0000 0000 0000 db06 aaba 21b4 06bc
00000300: fd16 06bb 0400 0000 0000 0000 0000 0000
00000310: 551e 2cba bd9f cd39 353e 4238 0000 0000
00000320: 0000 0000 0000 0000 64ad c1ba 8c5d 17bc
00000330: 0400 0000 6fd1 8bba 0000 0000 0000 0000
00000340: 660d 41bc 0000 0000 0000 0000 8702 44bc
00000350: c748 3d39 0400 0000 9c93 c01d 0000 0000
00000360: 0000 0000 e4d8 5137 f181 48bc b302 e839
00000370: 0000 0000 278f 2bbc ea54 20bc 0000 0000
00000380: 0000 0000 9c93 c09d 0000 0000 7500 0080
00000390: 0000 0000 0000 0000 0000 0000 0000 0000
000003a0: 0000 0000 0000 0000 0000 0000 0000 0000
000003b0: 0000 0000 7500 0080 0000 0000 0400 0080
000003c0: 9c93 c09d 0000 0000 0000 0000 9c93 c09d
000003d0: 0000 0000 0000 0000 7500 0080 0400 0000
000003e0: 0400 0080 9c93 c09d 0000 0000 0000 0000
000003f0: 0000 0000 7500 0080 9c93 c09d 0000 0000
0.0 0.0 -0.0065189465 -0.019348498 -0.0042118677 9.49731e-33 6e-45 0.0
-0.00019213652 6e-45 0.0 0.0 0.0 0.0 0.0006414371 -0.013580553
-0.010939544 -0.0063927923 0.0 0.0 -0.03027145 0.0 0.0 -0.026901556
0.00037130673 -0.0044423984 0.000701196 0.0 0.0 0.0 -0.025723653 -0.0045477985
0.0 -0.0105500445 -0.026732367 0.0 0.0 -0.0010016483 0.0 -0.0006414371
0.0 -6e-45 0.0 0.0 0.0 0.0 0.0 0.0
0.0 -0.0006414371 0.0 -6e-45 -0.0010016483 0.0 0.0 -0.0016430859
0.0 0.0 -0.0006414371 0.0027474165 -0.003047869 -0.000701196 0.0 0.0
0.0 -0.0006414371 -0.0010016483 0.0 -6e-45 0.0012659577 -0.021726817 0.0006414371
0.0 -0.01032286 -0.016338533 -0.021243168 -0.03140825 0.0 0.0 0.0
0.0 0.0 -0.00033796925 -0.0006414371 0.0 0.0 -6e-45 0.0010150296
-0.0009794055 0.0 0.0 0.0 0.0 0.0 0.0 0.0
0.007169886 0.0002811897 -0.00028425318 0.0007714794 6e-45 0.0 0.0004985567 0.0020842813
0.00042265383 0.0 0.0 0.0 0.0034317323 0.00091943063 0.0066127684 -2.0140464e-05
0.0 0.0 0.010943792 0.0 0.0 0.01172359 -0.0003268174 0.0012780377
-0.0017310203 0.0 0.0 0.0008580539 0.0071080923 0.0029776467 0.0 0.0043198667
0.003484067 0.0 0.0 0.00013416662 0.0 0.0 0.0 -6e-45
0.0 0.0 0.0 0.0 0.0 0.0 0.0 0.0
0.0 -6e-45 0.00013416662 0.0 0.0 0.00013416662 0.0 0.0
-6e-45 0.00013416662 -6e-45 2.787e-42 0.0 0.0 0.0 -6e-45
0.00013416662 0.0 -6e-45 0.0013891621 0.009632494 6e-45 0.0002530277 0.0004989481
0.00797957 -0.00042594667 0.01038447 0.0 0.0 0.0 0.0 0.0
-5.2886262e-05 -6e-45 0.0 0.0 -6e-45 0.0005064357 -5.2886262e-05 0.0
0.0 0.0 0.0 0.0 0.0 0.0 -0.0012972014 -0.008221657
-0.002046048 6e-45 0.0 0.0 -0.0006565799 0.0003921966 4.631114e-05 0.0
0.0 0.0 -0.0014776406 -0.009238612 6e-45 -0.0010667274 0.0 0.0
-0.01178298 0.0 0.0 -0.011963493 0.00018051556 6e-45 5.09746e-21 0.0
0.0 1.25078695e-05 -0.012238012 0.000442525 0.0 -0.010471142 -0.00978587 0.0
0.0 -5.09746e-21 0.0 -1.64e-43 0.0 0.0 0.0 0.0
0.0 0.0 0.0 0.0 0.0 -1.64e-43 0.0 -6e-45
-5.09746e-21 0.0 0.0 -5.09746e-21 0.0 0.0 -1.64e-43 6e-45
-6e-45 -5.09746e-21 0.0 0.0 0.0 -1.64e-43 -5.09746e-21 0.0

exp_avg_sq f4 [46, 94]
00000000: 0000 0000 0000 0000 001f 393b 0881 5b3b
00000010: 03e9 143a 094f cb36 1b70 5234 0000 0000
00000020: 9abb 7f38 801d 8333 0000 0000 0000 0000
00000030: 0000 0000 0000 0000 faf8 b138 698b 553b
00000040: 4da7 243a df22 323b 0000 0000 0000 0000
00000050: 8c31 4f3c 0000 0000 0000 0000 fba8 a33b
00000060: 0d7e b737 3cd5 503b d883 9638 0000 0000
00000070: 0000 0000 0000 0000 c5ed aa3b 3314 783b
00000080: 0000 0000 90ce 333b 312f 0d3c 0000 0000
00000090: 0000 0000 0e37 9a38 0000 0000 d7d1 9e38
000000a0: 0000 0000 1b70 5234 0000 0000 0000 0000
000000b0: 0000 0000 0000 0000 0000 0000 0000 0000
000000c0: 0000 0000 d7d1 9e38 0000 0000 4359 0236
000000d0: 25ee 9538 0000 0000 0000 0000 43ae 6c39
000000e0: 0000 0000 0000 0000 1a1d a738 117b 8939
000000f0: a3ff d439 44bc 0538 0000 0000 0000 0000
00000100: 0000 0000 858f a438 25ee 9538 0000 0000
00000110: 4359 0236 71cd 083a 5bd0 c23b d7d1 9e38
00000120: 0000 0000 c564 203b e92d 553b 01ec ec3b
00000130: 4de8 463c 0000 0000 0000 0000 0000 0000
00000140: 0000 0000 0000 0000 bc30 3138 d7d1 9e38
00000150: 0000 0000 0000 0000 1d2f d533 8eb2 4639
00000160: 6371 8838 0000 0000 0000 0000 0000 0000
00000170: 0000 0000 0000 0000 0000 0000 0000 0000
00000180: 9b51 6c3b c68d 9738 412a d438 b435 d738
00000190: bc2a 9231 0000 0000 146b 3739 33c0 5238
000001a0: a07e b936 0000 0000 0000 0000 0000 0000
000001b0: 5a44 4639 437e ce39 9b97 4c3a 824b de3a
000001c0: 0000 0000 0000 0000 1aa2 b83b 0000 0000
000001d0: 0000 0000 651a 3b3b acc4 0239 71f4 df38
000001e0: 74e4 f139 0000 0000 0000 0000 eb41 8538
000001f0: 5bc2 ab3a 7ebf 113b 0000 0000 ee0b 763a
00000200: c119 ad3a 0000 0000 0000 0000 f52d 8c37
00000210: 0000 0000 0000 0000 0000 0000 bc2a 9231
00000220: 0000 0000 0000 0000 0000 0000 0000 0000
00000230: 0000 0000 0000 0000 0000 0000 0000 0000
00000240: 0000 0000 3910 6c33 2c9e 8b37 0000 0000
00000250: 0000 0000 bb58 8c37 0000 0000 0000 0000
00000260: 8d41 2833 2383 9937 36e5 7b31 5db4 ff35
00000270: 0000 0000 0000 0000 0000 0000 3910 6c33
00000280: 2c9e 8b37 0000 0000 a035 0f33 2729 5939
00000290: d201 9a3b 5e7b 0035 b72c 6937 81ad 8939
000002a0: be7f 863a e0e5 073a dc15 b93b 0000 0000
000002b0: 0000 0000 0000 0000 0000 0000 0000 0000
000002c0: a7e5 1e38 0e42 b12f 0000 0000 0000 0000
000002d0: 9060 0333 9549 4838 4ffc 1e38 0000 0000
000002e0: 0000 0000 0000 0000 0000 0000 0000 0000
000002f0: 0000 0000 0000 0000 3376 1c39 e28d f33a
00000300: 68b2 8a3a 8bd6 eb35 0000 0000 0000 0000
00000310: 43fa 1439 d4da 2737 950c 3635 0000 0000
00000320: 0000 0000 0000 0000 056c 9238 c750 853b
00000330: eda7 0737 5fc3 0239 0000 0000 0000 0000
00000340: 3c70 b03b 0000 0000 0000 0000 7711 ab3b
00000350: 15ae 9337 ada6 1436 b544 6f34 0000 0000
00000360: 0000 0000 4a1d 8736 98f1 583b 0a4c 633a
00000370: 0000 0000 ffd3 173b fd8b 3a3b 0000 0000
00000380: 0000 0000 6779 7a34 0000 0000 7503 5234
00000390: 0000 0000 0000 0000 0000 0000 0000 0000
000003a0: 0000 0000 0000 0000 0000 0000 0000 0000
000003b0: 0000 0000 7503 5234 0000 0000 98bd d732
000003c0: b209 6e34 0000 0000 0000 0000 d8ed 1a35
000003d0: 0000 0000 0000 0000 604a 5e34 983c aa31
000003e0: 67a2 a131 feb0 6c34 0000 0000 0000 0000
000003f0: 0000 0000 44dc 7034 b209 6e34 0000 0000
0.0 0.0 0.0028247237 0.0033493657 0.00056804734 6.0590723e-06 1.9598558e-07 0.0
6.0971455e-05 6.105529e-08 0.0 0.0 0.0 0.0 8.486393e-05 0.0032584316
0.0006281033 0.002718143 0.0 0.0 0.01264609 0.0 0.0 0.0049945093
2.1873997e-05 0.003186538 7.177115e-05 0.0 0.0 0.0 0.0052163326 0.0037853837
0.0 0.0027436353 0.008617208 0.0 0.0 7.353547e-05 0.0 7.573113e-05
0.0 1.9598558e-07 0.0 0.0 0.0 0.0 0.0 0.0
0.0 7.573113e-05 0.0 1.9423467e-06 7.1492315e-05 0.0 0.0 0.00022571631
0.0 0.0 7.968601e-05 0.00026222368 0.00040626255 3.1885007e-05 0.0 0.0
0.0 7.846862e-05 7.1492315e-05 0.0 1.9423467e-06 0.00052186014 0.005945248 7.573113e-05
0.0 0.0024474126 0.0032528585 0.0072302823 0.012140346 0.0 0.0 0.0
0.0 0.0 4.2245476e-05 7.573113e-05 0.0 0.0 9.927155e-08 0.00018949268
6.506105e-05 0.0 0.0 0.0 0.0 0.0 0.0 0.0
0.0036059383 7.2266484e-05 0.00010116818 0.00010262002 4.2540176e-09 0.0 0.0001749213 5.02469e-05
5.5281707e-06 0.0 0.0 0.0 0.00018908214 0.00039385454 0.00078045734 0.0016959759
0.0 0.0 0.0056345584 0.0 0.0 0.0028549668 0.00012471032 0.000106789994
0.00046137313 0.0 0.0 6.3542124e-05 0.0013104187 0.0022239382 0.0 0.0009385933
0.0013206528 0.0 0.0 1.6710701e-05 0.0 0.0 0.0 4.2540176e-09
0.0 0.0 0.0 0.0 0.0 0.0 0.0 0.0
0.0 5.4962786e-08 1.6643746e-05 0.0 0.0 1.6730619e-05 0.0 0.0
3.9175166e-08 1.8300087e-05 3.6655599e-09 1.9051473e-06 0.0 0.0 0.0 5.4962786e-08
1.6643746e-05 0.0 3.3343554e-08 0.00020710063 0.004699924 4.786324e-07 1.3898293e-05 0.00026259947
0.0010261459 0.00051840954 0.005648358 0.0 0.0 0.0 0.0 0.0
3.7884016e-05 3.2243047e-10 0.0 0.0 3.0588637e-08 4.7752244e-05 3.7905116e-05 0.0
0.0 0.0 0.0 0.0 0.0 0.0 0.00014921352 0.0018581713
0.0010581734 1.7571305e-06 0.0 0.0 0.0001420761 1.0004926e-05 6.781859e-07 0.0
0.0 0.0 6.981943e-05 0.0040684673 8.085725e-06 0.00012470548 0.0 0.0
0.005384473 0.0 0.0 0.005220588 1.7604829e-05 2.2150737e-06 2.2283605e-07 0.0
0.0 4.026723e-06 0.0033102985 0.00086706935 0.0 0.002316713 0.0028464787 0.0
0.0 2.332723e-07 0.0 1.9559032e-07 0.0 0.0 0.0 0.0
0.0 0.0 0.0 0.0 0.0 1.9559032e-07 0.0 2.5115511e-08
2.2169004e-07 0.0 0.0 5.771558e-07 0.0 0.0 2.0702419e-07 4.95454e-09
4.7041797e-09 2.2043602e-07 0.0 0.0 0.0 2.2431874e-07 2.2169004e-07 0.0

exp_avg f4 [46, 46]
00000000: 99f1 a8bb f4e5 3bbb a0f2 cfba 7ec5 5abb
00000010: f0d6 10bc 065f 78bb fce8 5bba 9dcb 65b9
00000020: e7a7 5dba 54d4 4dbb 04a7 8c38 2f65 e7bb
00000030: a8b0 8ebb 7497 01bc b99f 13bb a9bf 9fbb
00000040: ebbf 2cbc 6f4c 87ba 7b78 d5ba a7e9 12bc
00000050: 98de e1ba d3af f8bb c69c bdb9 db56 5fbb
00000060: 1605 03bc 47db c7bb de15 79bb 0400 0000
00000070: 653f efb9 6648 00bb 5c32 a6bb f8b5 66b8
00000080: e8d1 2cbc 0f84 09bb a7eb 33bb 032d eabb
00000090: 54c7 08bb 0000 0000 93c5 1dbb 0378 cbba
000000a0: 703c 13bc fb80 84bb 152e abb9 6804 33bb
000000b0: 9b21 20bb 8c3d 42bc 5cdb 2d3a f3fa 483b
000000c0: 0965 b33a 1ab2 163b 7dac 663b 1745 0e3b
000000d0: 0a1c 803a cdf9 ec39 ffbc c63a cc8a f83a
000000e0: bb84 913a f3bd 803b 2424 243b 93f3 ab3b
000000f0: 3aa1 bc3a 819c 703b 4d8a bc3b b703 78b9
00000100: 7088 fd3a 441c b03b a32b 953a 7c37 653b
00000110: 6c6e af3a e869 0e3b e110 773b 5dc8 993b
00000120: 92b6 303b 0400 0080 1162 573a c471 8b3a
00000130: 7760 a03b 3df7 8a38 3f47 b43b 16be 2b3b
00000140: 3492 083b 4594 403b 27a8 953a 0000 0000
00000150: 6c96 073b 68fa c73a e1f2 9b3b f250 243b
00000160: 0207 523a 3316 ce3a 0e40 8439 af48 c33b
00000170: 196e ec39 1e91 ff39 a9b6 9c3a 42b9 08ba
00000180: ddda 6538 0fcb 81b9 11f2 2639 f161 163a
00000190: 4f41 15ba fcfd ae3a fbc0 b63a 0b04 5fba
000001a0: c93e 6d3a db85 3cb9 55fd 01ba d23a 053b
000001b0: 965a a83b d1dc 7139 785e 053a 4a33 0fbb
000001c0: d709 dc39 e32c 82ba 59fe 35b9 e39c fab8
000001d0: c27a 043b 5531 e83a 9e3a 263b 0400 0000
000001e0: e583 a1b9 c58a 7b37 be33 863b 5097 3238
000001f0: 6e45 2e3b c473 64b8 ba4a 443a acb7 573b
00000200: b870 9937 0000 0000 a89c 483a 5d55 f13a
00000210: 62a8 e5ba c062 153b c1d9 8a38 3b44 203a
00000220: d75c 143a ca94 bc3b c782 46b7 2157 5339
00000230: ea24 4a3a 7464 57b9 3d61 97b9 cafe 25ba
00000240: e7b3 ba38 778a d039 fd9c 15b9 d646 aa38
00000250: 7d54 673a 2c22 03ba 1504 cd37 82c4 41ba
00000260: d1d6 25ba cc10 b339 67c9 f439 c1e0 c138
00000270: 5843 2538 d147 80ba c045 2936 bd2c 1fba
00000280: 449e 4bb8 8d94 3ab9 a435 23ba b5c5 3c3a
00000290: 741e a93a 0400 0000 c683 3438 d7da 83b9
000002a0: 76bb 1f3b 63f4 b638 2a76 efb9 c0d9 cab9
000002b0: 1776 bd39 f685 0239 0d2c 34b9 0000 0000
000002c0: 1367 163a 93ca 883a 3280 f4ba 1cdd a93a
000002d0: 046e c238 b3bd b938 9cbd 3539 27bc 393a
000002e0: 7f9f 5739 dcd6 593a a35e 133a 1702 d039
000002f0: e0cf 813a bbdc 5039 16b4 9939 61f5 9639
00000300: 72cd 023a 92ac 403a 17a3 193a 2536 633a
00000310: 9bbd 4d3a a645 c83a 83b1 9938 2ad8 ab3a
00000320: e2c3 253b 8cc8 f638 2960 403a e394 a73a
00000330: 93ac 3c3a 6418 753a 50bc b139 f79b fd39
00000340: 74eb a43a 8a5a 893a fc18 633a 0400 0080
00000350: 6eda c039 e3ba 0839 2908 223b 88a4 4a38
00000360: 599e 123b e707 4f3a a401 953a 59ef cf3a
00000370: d888 ef38 0000 0000 0a27 f039 11f3 4b3a
00000380: 6e0e 1e3a f041 503a 7d53 8438 7037 8e39
00000390: 13fe 1b3a dc93 333b 9a78 8db7 0862 f038
000003a0: 247e 6cba 1919 3aba cbf2 09ba 8282 24bb
000003b0: 01f4 e038 0a0b feb8 919d 27ba 78f3 ffb9
000003c0: 8a10 a9b6 07d1 3abb 7831 bd39 d3c3 05bb
000003d0: 5288 e1ba 3190 a6b9 3960 a5ba 6469 3639
000003e0: 935c 2539 499a 38bb 70ed 0a39 44a3 0cbb
000003f0: efd7 e2b9 074c 18bb fcd5 f8ba 960b 26bb
-0.005155754 -0.0028670998 -0.0015865155 -0.0033381875 -0.008840308 -0.0037898435 -0.00083889044 -0.00021914994
-0.00084555004 -0.0031407075 6.706829e-05 -0.0070616226 -0.004354555 -0.007909644 -0.0022525622 -0.0048751426
-0.010543804 -0.0010322462 -0.0016286516 -0.00896684 -0.0017232476 -0.0075893193 -0.00036165694 -0.003407887
-0.007996818 -0.006099138 -0.0038007419 6e-45 -0.00045632865 -0.0019574403 -0.0050719213 -5.5005745e-05
-0.010548092 -0.0020983254 -0.0027453692 -0.007146479 -0.0020870762 0.0 -0.0024074062 -0.0015523437
-0.008986577 -0.004043696 -0.00032649995 -0.0027315859 -0.0024434093 -0.011855494 0.00066321134 0.0030667156
0.0013686727 0.002299434 0.0035198026 0.0021708661 0.0009773981 0.00045199544 0.0015162526 0.0018962263
0.0011102179 0.0039288937 0.0025045956 0.005247542 0.0014391311 0.0036714377 0.0057537914 -0.00023652507
0.001934303 0.0053744633 0.0011380803 0.0034975698 0.0013384349 0.0021730606 0.003769927 0.0046930746
0.002696429 -6e-45 0.0008216212 0.0010638763 0.004894312 6.6264045e-05 0.0055016573 0.002620583
0.0020839097 0.002938525 0.0011417911 0.0 0.0020689024 0.0015257122 0.004759178 0.0025072661
0.00080119085 0.0015723169 0.00025224726 0.0059595923 0.00045095457 0.0004874551 0.0011956292 -0.0005215594
5.4801687e-05 -0.00024756088 0.0001592117 0.00057366403 -0.00056936307 0.001335084 0.0013943011 -0.00085073774
0.0009050188 -0.00017978942 -0.0004958709 0.002032925 0.005137752 0.00023065812 0.00050876243 -0.002185064
0.00041969 -0.000993159 -0.00017356257 -0.000119501514 0.002021477 0.0017714897 0.0025364528 6e-45
-0.00030806582 1.4993076e-05 0.0040955236 4.2579428e-05 0.0026591676 -5.446725e-05 0.0007487942 0.0032915873
1.829151e-05 0.0 0.0007652738 0.0018412281 -0.0017521495 0.0022794455 6.6209126e-05 0.0006113683
0.0005659586 0.0057550417 -1.1832169e-05 0.00020154986 0.0007711189 -0.0002054142 -0.00028873413 -0.0006332217
8.9026806e-05 0.00039776016 -0.0001426823 8.119426e-05 0.00088245404 -0.00050023454 2.4439805e-05 -0.00073916477
-0.00063262606 0.00034154055 0.00046689363 9.244821e-05 3.9401784e-05 -0.0009787028 2.5223562e-06 -0.0006072035
-4.8546368e-05 -0.00017793682 -0.00062259496 0.00072010915 0.0012902752 6e-45 4.3038068e-05 -0.00025149315
0.002437321 8.723957e-05 -0.0004567367 -0.0003869068 0.00036136873 0.0001244767 -0.00017182548 0.0
0.0005737405 0.0010436348 -0.0018653928 0.0012959572 9.271133e-05 8.856822e-05 0.0001733214 0.0007085227
0.00020563415 0.00083099096 0.0005621707 0.0003967441 0.000990387 0.00019918654 0.0002931661 0.0002879305
0.000498972 0.0007349934 0.0005860789 0.0008667431 0.0007848383 0.0015279546 7.328673e-05 0.0013110687
0.0025293757 0.00011767549 0.0007338548 0.001278546 0.00071973464 0.0009349643 0.00033900375 0.00048372123
0.0012582378 0.0010479253 0.0008663086 -6e-45 0.00036783837 0.00013039591 0.0024724102 4.8313785e-05
0.0022372215 0.0007897601 0.0011368287 0.0015864178 0.00011421897 0.0 0.00045805454 0.0007780055
0.0006029372 0.0007944396 6.3098014e-05 0.00027125655 0.0005950641 0.0027401363 -1.686467e-05 0.000114623515
-0.0009021482 -0.0007099077 -0.0005262314 -0.0025102203 0.000107266016 -0.0001211372 -0.00063940237 -0.00048818788
-5.038518e-06 -0.0028505938 0.00036085746 -0.002041091 -0.0017206764 -0.00031769418 -0.0012617178 0.00017396134
0.00015770113 -0.0028168133 0.00013249158 -0.0021459619 -0.00043266962 -0.0023238675 -0.0018984671 -0.0025336496
