production_models/2023-03-06-112027_188465/best.ckpt (torch, 166606 bytes, 21 tensors)

encoder.W_i.weight f4 [46, 94]
0.008472657 -0.09266144 0.008095585 0.13703917 -0.100002326 -0.20514259 -0.08222435 -0.057862855
0.08642726 0.19095238 0.2693033 0.09261932 0.03898538 0.09185336 0.036944624 -0.12637909
0.010724821 -0.012460365 0.029410675 -0.10541887 -0.005289388 -0.17373848 -0.004600681 0.035353657
0.035639968 0.065082245 0.08558254 0.01844427 0.031199621 0.18216673 0.049010627 0.080983125
0.0041443333 0.02107634 0.04477806 -0.011030711 -0.0915942 -0.02718965 0.07905068 -0.027095431
-0.054380905 0.011759978 -0.039915703 0.08402999 0.012849412 -0.028043317 -0.017465904 -0.033231024
-0.08223195 -0.08448803 0.014961643 0.13265336 -0.046443854 -0.09233177 0.043769322 -0.026425898
-0.07617927 0.07774089 0.04901779 -0.23574445 0.05983336 0.17107539 0.035796467 -0.030946298
0.014264575 0.07758183 -0.015714906 -0.028314838 0.028506834 0.060835972 0.016533833 0.04627146
0.034831543 0.0452658 -0.06508928 -0.13529208 -0.012478265 -0.093193755 0.07341691 -0.100549586
-7.524846e-06 -0.021393469 0.08323257 0.004777615 -0.051755164 0.015626572 0.033193808 0.029195584
-0.012809144 -0.019423213 -0.09549311 0.061255712 -0.036443677 -0.005063791 -0.09410553 -0.05261574
-0.10805731 0.13179567 0.15023443 -0.08244177 0.050411567 -0.09628267 0.0740183 -0.08682032
0.014520142 0.10127131 -0.09451321 0.07237163 -0.08664354 0.12538572 -0.16108075 -0.065018766
0.081224784 -0.034992956 -0.06656545 0.08039801 0.08226517 0.064465925 0.057100058 -0.25441062
0.07385579 -0.07406437 0.0020120603 -0.018687433 -0.03708371 0.10963659 0.06194474 0.07454779
0.10260985 -0.09005156 0.003371168 0.13164854 0.012373908 0.04786256 0.012119539 0.08382741
-0.022298196 -0.033608936 -0.024922658 -0.06604187 -0.059908334 0.06994989 -0.033259388 0.11648296
-0.07285911 0.073006876 -0.017777305 0.068083905 -0.00087850116 -0.07846616 0.09938528 0.08193291
-0.020027068 -0.061684538 0.06629298 -0.018737394 -0.030547898 -0.03642108 0.084634945 0.09134934
-0.03790549 -0.01622749 -0.08407343 0.17332543 -0.13433746 -0.0025680522 0.05955256 0.21786238
-0.071555965 0.00020856141 -0.01727813 -0.026735002 0.0003333064 -0.030274509 -0.0860903 0.05320472
0.074360654 -0.06558532 -0.065832935 0.07746241 -0.029477483 0.06266566 -0.032559615 0.01856184
-0.013273939 0.097575426 0.06453338 0.086594194 0.046698064 -0.07750717 0.08906118 -0.2069019
0.007199789 0.08805674 -0.025597187 -0.08588452 -0.0115061905 -0.026496928 -0.19074082 0.09399092
0.04482002 -0.038244635 -0.052311867 -0.061119884 -0.05019994 0.004192673 -0.015873479 -0.104709536
0.0110667525 -0.05281783 -0.08064481 -0.04392304 0.18394724 -0.1686721 0.3103814 -0.009585461
0.0112772975 0.24942167 -0.10497408 0.088634096 -0.068814054 -0.044994485 -0.016412443 0.10231126
-0.06648614 0.1219051 -0.046148356 -0.05874625 -0.05214958 0.04473198 0.053430732 0.087876186
0.02822834 0.07874401 -0.060195178 -0.012023425 0.04821873 -0.07441829 0.09322923 -0.011800886
0.103143476 0.02151415 -0.09840291 0.12992944 -0.009780615 -0.072631925 -0.014592339 -0.02277717
0.08330714 0.06455314 -0.07679422 0.08079589 -0.08042328 -0.03631035 0.07870035 -0.09542921
00000000: e6d0 0a3c 48c5 bdbd 58a3 043c ff53 0c3e
00000010: 05ce ccbd e610 52be 3d65 a8bd 9a01 6dbd
00000020: c600 b13d 0589 433e 1fe2 893e 33af bd3d
00000030: 22af 1f3d 9d1d bc3d 3f53 173d 8569 01be
00000040: 29b7 2f3c 8f26 4cbc a8ee f03c d9e5 d7bd
00000050: 9a52 adbb 80e8 31be 4fc1 96bb ffce 103d
00000060: 37fb 113d d749 853d e645 af3d 7018 973c
00000070: 5996 ff3c ea89 3a3e 5ebf 483d 7bda a53d
00000080: 30cd 873b 4aa8 ac3c 3369 373d 28ba 34bc
00000090: bd95 bbbd d4bc debc 53e5 a13d 3df7 ddbc
000000a0: 83be 5ebd ecac 403c a67e 23bd ea17 ac3d
000000b0: 5786 523c 19bb e5bc a814 8fbc 411d 08bd
000000c0: 3969 a8bd 0f08 adbd ae21 753c 48d6 073e
000000d0: e93b 3ebd 7018 bdbd 7647 333d 207b d8bc
000000e0: e103 9cbd 9e36 9f3d e1c6 483d fe66 71be
000000f0: d313 753d 632e 2f3e 519f 123d 1783 fdbc
00000100: f7b5 693c 39e3 9e3d 8cbc 80bc 85f4 e7bc
00000110: 2a87 e93c 242f 793d f671 873c 2487 3d3d
00000120: 85ab 0e3d a268 393d 874d 85bd 028a 0abe
00000130: a371 4cbc 5edc bebd 9b5b 963d f1ec cdbd
00000140: ef7d fcb6 5b41 afbc d675 aa3d 8a8d 9c3b
00000150: 39fd 53bd 4c03 803c 3bf6 073d 942b ef3c
00000160: 72dd 51bc 6e1d 9fbc e491 c3bd 45e7 7a3d
00000170: f745 15bd 28ee a5bb 66ba c0bd 9a83 57bd
00000180: 274d ddbd 72f5 063e 0ed7 193e 3bd7 a8bd
00000190: 5c7c 4e3d d92f c5bd e896 973d dace b1bd
000001a0: e4e5 6d3c 5567 cf3d 2490 c1bd 9437 943d
000001b0: 2b72 b1bd 1d65 003e 5af2 24be 8f28 85bd
000001c0: 2e59 a63d c654 0fbd 7753 88bd b6a7 a43d
000001d0: a47a a83d b606 843d c0e1 693d 1c42 82be
000001e0: b441 973d 0faf 97bd c5dc 033b 6316 99bc
000001f0: 17e5 17bd 2689 e03d c5b9 7d3d 83ac 983d
00000200: 1d25 d23d f46c b8bd d0ee 5c3b e0ce 063e
00000210: efbb 4a3c 880b 443d 0891 463c b5ad ab3d
00000220: b5aa b6bc 86a9 09bd 9a2a ccbc f640 87bd
00000230: 7162 75bd e341 8f3d ff3a 08bd 9e8e ee3d
00000240: 2837 95bd a184 953d b6a1 91bc 936f 8b3d
00000250: 374b 66ba deb2 a0bd 828a cb3d 71cc a73d
00000260: ce0f a4bc eda8 7cbd 9dc4 873d 2a7f 99bc
00000270: 963f fabc 452e 15bd 1655 ad3d 5d15 bb3d
00000280: c942 1bbd 83ef 84bc b12e acbd 397c 313e
00000290: c28f 09be c44c 28bb 63ed 733d 5117 5f3e
000002a0: ef8b 92bd 47b1 5a39 dd8a 8dbc 5d03 dbbc
000002b0: a1bf ae39 3f02 f8bc 1c50 b0bd 31ed 593d
000002c0: 664a 983d 9951 86bd 6bd3 86bd 9da4 9e3d
000002d0: c37a f1bc db56 803d 3b5d 05bd 000f 983c
000002e0: ef7a 59bc a0d5 c73d 142a 843d 4c58 b13d
000002f0: 7846 3f3d 14bc 9ebd b565 b63d 17de 53be
00000300: 35ec eb3b 1857 b43d 31b1 d1bc 39e4 afbd
00000310: 7684 3cbc 1610 d9bc 9051 43be 507e c03d
00000320: 3395 373d 68a6 1cbd f844 56bd d858 7abd
00000330: 749e 4dbd b162 893b 1909 82bc f471 d6bd
00000340: 5351 353c 8257 58bd 1b29 a5bd a5e8 33bd
00000350: aa5c 3c3e 61b8 2cbe 50ea 9e3e 560c 1dbc
00000360: 6ac4 383c 6568 7f3e a7fc d6bd cb85 b53d
00000370: 62ee 8cbd 234c 38bd 6373 86bc 9188 d13d
00000380: e329 88bd 62a9 f93d 0f06 3dbd e89f 70bd
00000390: cc9a 55bd e138 373d 2fda 5a3d 6ef8 b33d
000003a0: 1f3f e73c 8a44 a13d 388f 76bd e6fd 44bc
000003b0: 0181 453d 9e68 98bd f7ee be3d 8158 41bc
000003c0: e33c d33d 713e b03c 7787 c9bd 390c 053e
000003d0: df3e 20bc 0cc0 94bd b514 6fbc 3097 babc
000003e0: ef9c aa3d 7034 843d 4a46 9dbd 5178 a53d
000003f0: f6b4 a4bd 29ba 14bd a62d a13d 6470 c3bd

encoder.W_h.weight f4 [46, 46]
0.049362414 0.051168703 0.1487052 0.22138645 -0.12905231 0.086702496 -0.07515365 0.0034771073
0.017141405 -0.026995486 -0.13306013 -0.04309418 0.016414985 0.16592225 -0.08913278 -0.051037267
0.09008703 -0.18191133 0.08019577 -0.21537657 0.14496422 -0.09710323 0.07625891 0.19636934
-0.08408326 -0.15670443 -0.04210987 -0.06353892 -0.079334036 0.05587328 0.07526071 0.14414932
0.024572881 0.14464253 -0.14675002 0.15415761 -0.101933084 0.059689574 0.0795676 0.16422185
-0.09729439 -0.081718884 -0.19817051 0.055438098 0.034813162 0.10517741 0.011229317 0.077859186
-0.09285863 -0.13112868 0.13127694 0.10166592 0.11115055 0.029096318 -0.081755534 -0.07401402
0.03332338 -0.11349928 -0.083068095 -0.24182217 -0.032711063 -0.044588115 -0.2769767 0.11340848
-0.044826068 0.18644892 0.075942874 -0.059855256 -0.15763873 -0.06647337 0.06656506 -0.0037212877
-0.029405646 -0.04596146 0.049999453 -0.012936084 0.19165859 0.07143112 -0.2539716 -0.07691896
-0.10182634 -0.058799304 -0.009578496 0.13709024 -0.028062908 -0.016028987 -0.0847029 0.04674077
0.15933529 0.016422443 0.047649525 -0.38300434 -0.008781761 0.016229596 0.14423403 -0.048923645
-0.052247915 -0.0387982 -0.062310304 -0.027163351 -0.010896312 -0.1577471 0.055217806 -0.34743053
0.07753331 -0.089171164 0.17771335 -0.12289715 -0.1963852 -0.06744238 -0.121452786 0.12027932
-0.019108891 -0.0705105 -0.03660633 -0.058918923 -0.065174155 -0.110808656 -0.0333403 0.04631745
0.007258271 0.10376944 0.09592526 -0.06552119 0.0020516738 0.03976986 -0.19793011 -0.12517866
0.042012412 0.08858932 -0.09813349 0.09388209 -0.19811206 -0.009315984 -0.039496392 -0.010735613
0.09806089 -0.23309138 -0.13151002 0.1451213 -0.1890717 -0.012076357 -0.17471349 -0.29809004
-0.040354215 0.055397347 -0.17697757 0.25207543 -0.0928733 0.02966054 0.08864483 0.11340737
-0.09501123 0.17854083 0.082034394 -0.19297795 0.017143087 -0.3275358 -0.11882848 -0.09457163
0.22890744 -0.23455396 -0.101277255 0.12673375 0.1067085 -0.32400241 0.12183236 -0.112148106
-0.074556135 0.014509829 0.006441729 -0.015626239 0.017653547 -0.38357946 -0.20713517 -0.2248469
-0.10450629 -0.10257275 0.108987704 0.21585909 0.041059814 0.16201147 0.065708265 0.05271292
0.02691481 -0.011614377 0.06852054 -0.16491273 0.0057894546 0.10617826 -0.17578635 0.0018258062
-0.12145884 0.23559946 -0.025421264 -0.14107315 -0.0737608 -0.052907374 0.08987452 0.035325434
-0.43827367 -0.011326999 -0.20595302 0.013335353 0.009415185 0.13371551 0.076910645 0.030203788
-0.13615823 -0.03914101 -0.091133475 -0.03359015 0.12739255 0.08365542 -0.095421545 -0.060247093
-0.15480395 0.028017832 -0.021035284 -0.048862945 0.002133262 -0.21212758 -0.22737235 -0.015282453
-0.20704181 -0.090234786 -0.015692614 -0.09631295 -0.05425793 0.031714946 -0.045206856 0.180133
-0.0212377 -0.15141039 0.12154003 0.018941497 0.092211366 0.046665024 -0.11622895 -0.0019872743
0.10327465 -0.22537784 -0.019879403 0.052847873 0.14774221 0.011802876 -0.21862498 -0.13936135
-0.1876228 0.20093308 0.11072173 -0.11477403 0.03223757 -0.14075346 0.101634696 -0.08227411
00000000: 3e30 4a3d 4696 513d 2d46 183e 21b3 623e
00000010: 4a26 04be 1491 b13d 28ea 99bd 2ee0 633b
00000020: 226c 8c3c a325 ddbc ea40 08be 8683 30bd
00000030: b878 863c 86e7 293e 3f8b b6bd 740c 51bd
00000040: 8c7f b83d f746 3abe ae3d a43d ad8b 5cbe
00000050: 8071 143e 0fde c6bd a22d 9c3d 0b15 493e
00000060: d833 acbd 2077 20be 667b 2cbd b120 82bd
00000070: e279 a2bd 61db 643d 4a22 9a3d e19b 133e
00000080: 114d c93c 2c1d 143e a345 16be 7edb 1d3e
00000090: 4bc2 d0bd 0e7d 743d 56f4 a23d c629 283e
000000a0: 4842 c7bd 3b5c a7bd 36ed 4abe 0f13 633d
000000b0: 3f98 0e3d 4167 d73d 2bfb 373c a374 9f3d
000000c0: aa2c bebd 9946 06be 766d 063e 3936 d03d
000000d0: e6a2 e33d 675b ee3c 726f a7bd aa94 97bd
000000e0: 197e 083d 4f72 e8bd 9b1f aabd 3ba0 77be
000000f0: 09fc 05bd 07a2 36bd e4cf 8dbe b542 e83d
00000100: 8a9b 37bd 77ec 3e3e f087 9b3d c92a 75bd
00000110: 0c6c 21be 3123 88bd 4353 883d d9e0 73bb
00000120: 1ce4 f0bc 1542 3cbd 3acc 4c3d def1 53bc
00000130: 2642 443e 7b4a 923d 9108 82be b087 9dbd
00000140: 548a d0bd 8ad7 70bd 20ef 1cbc 6261 0c3e
00000150: 2fe4 e5bc 394f 83bc b778 adbd 4073 3f3d
00000160: ca28 233e 5c88 863c 262c 433d 2519 c4be
00000170: 60e1 0fbc eef3 843c 16b2 133e 2964 48bd
00000180: e901 56bd ddea 1ebd 1739 7fbd ad85 debc
00000190: 7286 32bc 7588 21be 112c 623d 6ae2 b1be
000001a0: c9c9 9e3d 5f9f b6bd 7dfa 353e 80b1 fbbd
000001b0: 3419 49be 3b1f 8abd 3dbc f8bd 0155 f63d
000001c0: 408a 9cbc cf67 90bd 85f0 15bd f854 71bd
000001d0: 077a 85bd a6ef e2bd d78f 08bd 5eb7 3d3d
000001e0: cad6 ed3b 1285 d43d 7674 c43d f92f 86bd
000001f0: 6075 063b b9e5 223d 31ae 4abe d62e 00be
00000200: 3515 2c3d 516e b53d 36fa c8bd 4145 c03d
00000210: e3dd 4abe 12a2 18bc f8c6 21bd 6de4 2fbc
00000220: 26d4 c83d 82af 6ebe 90aa 06be ae9a 143e
00000230: 039c 41be eadb 45bc 18e8 32be 429f 98be
00000240: 764a 25bd 54e8 623d 9c39 35be 0810 813e
00000250: 5b34 bebd a9fa f23c 6c8b b53d 2042 e83d
00000260: 3f95 c2bd 68d3 363e a601 a83d 039c 45be
00000270: a96f 8c3c c6b2 a7be 595c f3bd c5ae c1bd
00000280: b666 6a3e ea2e 70be 736a cfbd 7ec6 013e
00000290: fc89 da3d a5e3 a5be 3f83 f93d e8ad e5bd
000002a0: e3b0 98bd a2ba 6d3c 2415 d33b 9902 80bc
000002b0: 2c9e 903c 8764 c4be 3e1b 54be 443e 66be
000002c0: 6507 d6bd a911 d2bd f234 df3d 2a0a 5d3e
000002d0: 562e 283d 56e6 253e 0e92 863d 81e9 573d
000002e0: 737c dc3c 3a4a 3ebc 7f54 8c3d e2de 28be
000002f0: 77b5 bd3b fd73 d93d 5601 34be e44f ef3a
00000300: 6abf f8bd fc40 713e 4140 d0bc 7b75 10be
00000310: e70f 97bd 67b5 58bd 2210 b83d 67b1 103d
00000320: 6865 e0be e194 39bc 59e5 52be 867c 5a3c
00000330: 2642 1a3c b8ec 083e 5483 9d3d ef6d f73c
00000340: 106d 0bbe 5352 20bd 30a4 babd d395 09bd
00000350: 3173 023e 8853 ab3d 5f6c c3bd a8c5 76bd
00000360: ed84 1ebe a785 e53c 3052 acbc 8324 48bd
00000370: 33ce 0b3b f937 59be 4cd4 68be 4163 7abc
00000380: c502 54be 04cd b8bd cc8d 80bc b93f c5bd
00000390: 903d 5ebd 88e7 013d d32a 39bd c974 383e
000003a0: affa adbc 530b 1bbe fbe9 f83d 332b 9b3c
000003b0: 50d9 bc3d d323 3f3d 7209 eebd ee3c 02bb
000003c0: a981 d33d 73c9 66be 21da a2bc 0377 583d
000003d0: bc49 173e da60 413c 3adf 5fbe beb4 0ebe
000003e0: 3120 40be 67c1 4d3e 13c2 e23d a60e ebbd
000003f0: 8b0b 043d ad21 10be da25 d03d 547f a8bd

encoder.W_o.weight f4 [46, 116]
0.05544336 0.066592775 0.03993409 -0.052138332 -0.106411174 -0.14252503 -0.0048736143 -0.02279132
0.007114323 0.2725254 -0.042042356 0.0724032 0.045281243 -0.03273397 0.05765784 -0.11462921
0.0025361108 0.05603166 0.06872412 -0.014937731 0.062029447 -0.040471386 -0.035134427 0.04951771
-0.0004847813 -0.0981525 -0.09404375 -0.051443975 0.038768917 0.013534519 -0.077583656 -0.00653903
0.06865895 0.019428056 -0.08875059 -0.0029674124 -0.008564433 0.095327176 0.020885492 -0.08201847
0.06383738 0.043227244 0.019156225 -0.061798416 -0.07195514 -0.033856407 0.05556064 -0.09104519
-0.07316383 -0.06605309 -0.0437114 0.094398595 -0.025238499 -0.08287421 0.07345788 0.027170388
0.032245003 -0.0016605556 -0.052300636 -0.06288721 0.011819751 0.058498792 -0.08071702 -0.061895464
0.050594073 -0.0595659 -0.06181529 -0.035816856 0.034599103 -0.051406316 -0.021468516 -0.020089043
-0.0724918 -0.1367525 0.009398307 0.039781623 0.011879241 -0.049788643 -0.07115632 0.06121274
0.017177438 -0.047556385 -0.0821166 -0.054814786 -0.05803395 0.052315403 -0.004371062 -0.053274628
-0.085242234 -0.076575466 -0.02623972 0.058633026 -0.05050614 0.013434213 0.04450015 -0.0021941485
-0.043679006 0.01960897 0.005689407 -0.018671822 -0.0668007 0.047150448 -0.0056480123 -0.072877355
-0.01623843 -0.103388414 -0.037847217 0.023329638 0.037314754 -0.06140096 0.039076455 -0.07800544
0.0215116 -0.062285878 -0.054592967 0.070792355 0.06959491 -0.06929414 -0.06895404 -0.075396284
-0.052618854 -0.025992269 -0.014485776 -0.010810147 -0.027189836 0.23305883 0.3287776 -0.03674354
0.0634082 -0.027508378 0.109856755 -0.044103127 -0.002315581 -0.188208 0.041963175 -0.23684545
-0.0816689 -0.3332634 -0.013711084 0.018747203 -0.10319073 -0.0008004288 0.0761218 -0.084919065
-0.0708154 0.039648637 0.05719257 -0.06362691 0.06251064 -0.03292548 -0.07132197 0.070210725
-0.0034459285 0.09337773 0.019587567 -0.05538294 -0.09151305 0.08395803 -0.06184435 -0.028429637
-0.007935022 0.09228826 0.081817076 -0.015169466 -0.007895686 0.093147874 -0.0101156 0.096040316
0.025305063 -0.0059665907 -0.03778375 -0.053239092 0.02072974 -0.0073318663 0.10201072 0.0025703975
-0.05944501 0.013113439 -0.08464092 -0.087277114 -0.02708766 -0.019860657 0.08379488 0.007017936
0.03766428 0.02928119 -0.03680141 0.0031172945 -0.14796011 -0.07035672 0.01848528 -0.073164254
-0.12048353 0.0801719 -0.050283056 0.17276023 -0.12013794 0.051057838 -0.027794573 -0.19892772
-0.08240373 0.11152819 -0.030168734 -0.05001608 0.018169457 0.051720396 -0.17504774 0.03354527
-0.03444159 0.06783777 -0.022324815 -0.10688551 -0.18097654 0.047552384 -0.10286493 -0.05463418
-0.14350797 -0.1434592 0.060821902 0.1613032 0.09735328 0.11164818 0.078509256 -0.03575732
0.01927372 -0.005805988 0.0657549 -0.19201969 0.06077425 -0.16348243 -0.12674952 -0.07189171
-0.057745647 0.026015718 -0.041996174 -0.015296843 0.013695367 -0.17228043 0.008374391 -0.048257023
-0.04359163 0.11507794 0.17101201 -0.041810896 -0.075372666 -0.07093185 -0.01208454 0.09845658
0.065039195 -0.013919772 0.032150038 -0.19141045 -0.05666471 -0.13425326 -0.063968204 0.10613834
00000000: 9418 633d cb61 883d ee91 233d 018f 55bd
00000010: 1aee d9bd 15f2 11be d7b2 9fbb ddb4 babc
00000020: 441f e93b 7388 8b3e 9b34 2cbd 2148 943d
00000030: d378 393d 0e14 06bd a12a 6c3d b8c2 eabd
00000040: e134 263b 7481 653d 3bbf 8c3d 63bd 74bc
00000050: 9712 7e3d 53c5 25bd 1ee9 0fbd 15d3 4a3d
00000060: 3f2a feb9 2e04 c9bd 029a c0bd ebb6 52bd
00000070: 28cc 1e3d e3bf 5d3c 2ee4 9ebd 5c45 d6bb
00000080: 109d 8c3d 9627 9f3c dfc2 b5bd eb78 42bb
00000090: d651 0cbc e53a c33d 0d18 ab3c 4df9 a7bd
000000a0: 2cbd 823d 0d0f 313d 84ed 9c3c 5620 7dbd
000000b0: 375d 93bd 04ad 0abd 8e93 633d e775 babd
000000c0: ebd6 95bd d846 87bd ba0a 33bd 0d54 c13d
000000d0: f8c0 cebc f4b9 a9bd 1671 963d 6f94 de3c
000000e0: 5613 043d 00a7 d9ba 3139 56bd 02cb 80bd
000000f0: a1a7 413c 6e9c 6f3d f74e a5bd 1986 7dbd
00000100: bb3b 4f3d 60fb 73bd 0832 7dbd b2b4 12bd
00000110: cab7 0d3d 6e8f 52bd bede afbc c791 a4bc
00000120: 9576 94bd d908 0cbe 5bfb 193c 0ef2 223d
00000130: 26a1 423c 2def 4bbd 68ba 91bd 36ba 7a3d
00000140: b3b7 8c3c 7cca 42bd bf2c a8bd 7885 60bd
00000150: 02b5 6dbd ad48 563d 203b 8fbb 7f36 5abd
00000160: 7b93 aebd 99d3 9cbd aef4 d6bc 2f29 703d
00000170: 87df 4ebd 2c1b 5c3c ca45 363d b4cb 0fbb
00000180: c2e8 32bd fea2 a03c 346e ba3b a6f5 98bc
00000190: cece 88bd d420 413d f612 b9bb b940 95bd
000001a0: 7506 85bc 4ebd d3bd af05 1bbd cc1d bf3c
000001b0: 5bd7 183d 937f 7bbd a20e 203d 51c1 9fbd
000001c0: 1839 b03c 7a1f 7fbd e09c 5fbd 95fb 903d
000001d0: c787 8e3d 16ea 8dbd c737 8dbd 5e69 9abd
000001e0: de86 57bd bded d4bc c055 6dbc 0b1d 31bc
000001f0: 38bd debc f9a6 6e3e 8a55 a83e 6580 16bd
00000200: 29dc 813d 4059 e1bc 94fc e03d 7ba5 34bd
00000210: 01c1 17bb 99b9 40be 94e1 2b3d 9d87 72be
00000220: 0642 a7bd 80a1 aabe 74a4 60bc bc93 993c
00000230: a955 d3bd ded3 51ba bfe5 9b3d 0cea adbd
00000240: aa07 91bd 9c66 223d c242 6a3d d34e 82bd
00000250: 9405 803d dedc 06bd 4111 92bd a4ca 8f3d
00000260: 16d5 61bb d33c bf3d 1b76 a03c 39d9 62bd
00000270: 326b bbbd 30f2 ab3d 8050 7dbd 45e5 e8bc
00000280: e501 02bc a101 bd3d b68f a73d 5a89 78bc
00000290: e85c 01bc 50c4 be3d e7bb 25bc c9b0 c43d
000002a0: 904c cf3c 6483 c3bb 22c3 1abd 3c11 5abd
000002b0: 6ad1 a93c 2740 f0bb ffea d03d 1d74 283b
000002c0: 9c7c 73bd c0d9 563c 3858 adbd 58be b2bd
000002d0: f1e6 ddbc d1b2 a2bc a69c ab3d b7f6 e53b
000002e0: dc45 1a3d 1bdf ef3c 13bd 16bd 864b 4c3b
000002f0: db82 17be 2f17 90bd 716e 973c 24d7 95bd
00000300: 12c0 f6bd 2a31 a43d 9bf5 4dbd 0fe8 303e
00000310: e10a f6bd 0622 513d 72b1 e3bc b5b3 4bbe
00000320: 49c3 a8bd e468 e43d 6c24 f7bc a9dd 4cbd
00000330: 1dd8 943c c4d8 533d b73f 33be c466 093d
00000340: a012 0dbd 87ee 8a3d 88e2 b6bc cae6 dabd
00000350: ea51 39be 4ac6 423d d9aa d2bd 17c8 5fbd
00000360: c1f3 12be f8e6 12be 6320 793d ab2c 253e
00000370: 2861 c73d cda7 e43d 76c9 a03d 4476 12bd
00000380: ece3 9d3c 2840 bebb 81aa 863d cfa0 44be
00000390: 6cee 783d f067 27be a0ca 01be f63b 93bd
000003a0: b386 6cbd ea1e d53c 2e04 2cbd 9c9f 7abc
000003b0: 8862 603c 486a 30be be34 093c 28a9 45bd
000003c0: 238d 32bd fcad eb3d c61d 2f3e e741 2bbd
000003d0: fc5c 9abd b844 91bd 3cfe 45bc 9aa3 c93d
000003e0: 4533 853d c10f 64bc c2af 033d 1a01 44be
000003f0: 4119 68bd b079 09be c301 83bd 0f5f d93d

encoder.W_o.bias f4 [46]
-0.0016714173 0.07705568 -0.04734683 0.0419627 0.029652685 0.07960911 0.043822333 -0.0104441615
0.08782348 0.0036004612 0.031313993 0.018060384 -0.03065 -0.044242963 0.0030780032 -0.009869117
-0.0050352276 -0.06385866 0.07222071 -0.056378126 -0.009503912 0.04629511 -0.07273473 0.06764859
-0.048211258 -0.06454536 0.027845154 -0.077238634 -0.007485969 -0.05266409 -0.08190619 -0.100165814
0.0723365 -0.06900828 -0.07281251 -0.09287129 0.057188682 0.039046764 0.043232735 0.011131165
0.007369992 0.057955787 -0.05342448 -0.087319374 0.01689418 -0.03814352
00000000: 7513 dbba 5ecf 9d3d c0ee 41bd 15e1 2b3d
00000010: 30ea f23c 1a0a a33d 0c7f 333d fd1d 2bbc
00000020: ccdc b33d b7f5 6b3b 1a43 003d 5ff3 933c
00000030: b515 fbbc 1c38 35bd 53b8 493b 14b2 21bc
00000040: 8dfe a4bb 54c8 82bd 74e8 933d c0ec 66bd
00000050: 4cb6 1bbc f19f 3d3d f2f5 94bd 588b 8a3d
00000060: 2b79 45bd 5c30 84bd 851b e43c 4a2f 9ebd
00000070: dc4c f5bb 4db6 57bd 6fbe a7bd bc23 cdbd
00000080: 2925 943d 3754 8dbd ba1e 95bd 4e33 bebd
00000090: ae3e 6a3d 80ef 1f3d cf14 313d 7d5f 363c
000000a0: f97f f13b 0c63 6d3d a1d3 5abd 80d4 b2bd
000000b0: aa65 8a3c 613c 1cbd

decoder.ffn.1.weight f4 [16, 46]
-0.069976546 -0.14855275 -0.0886132 0.0068733664 0.099037364 -0.021065067 0.026879026 0.096389696
0.045807656 -0.012104634 -0.1307827 0.04129474 0.036637668 0.029537536 -0.1858502 -0.12693126
-0.040778533 -0.061678644 -0.12049096 0.052025583 -0.062278043 0.04363511 -0.098601125 0.0662113
-0.15139703 0.055608597 0.063923374 -0.06964003 0.12637022 -0.114700206 0.0619904 -0.09980626
0.13921684 -0.17203382 -0.0012084064 -0.0289852 0.13818261 -0.055488143 -0.10189946 0.08928333
-0.07021978 -0.05223619 -0.043126825 -0.010270451 -0.0046732742 -0.1166111 0.078607805 -0.16451828
-0.21203727 -0.094366856 0.075883426 -0.037327923 0.015727626 0.046617284 0.16925552 -0.12293887
0.05981782 0.07578562 -0.053634185 -0.08378667 -0.04536524 0.02281144 0.004664393 -0.04659167
-0.083089344 0.11022256 -0.050515696 0.14501308 -0.062070243 0.10915252 0.13293289 -0.0011220997
-0.09799368 0.04917793 0.10534997 0.0708642 0.08791477 -0.092919864 0.069594406 -0.14979053
-0.059548203 0.014215617 -0.02474064 0.14050421 0.033195917 0.15867329 0.10032189 -0.1127324
0.16845977 -0.08830093 0.14079598 0.06430298 0.028867876 0.04086649 0.09820999 0.031607836
-0.014203674 -0.0056418558 -0.15348633 0.030064924 0.082874365 0.05822391 -0.123084016 0.020710772
-0.122872904 -0.15133283 -0.09209324 -0.13843288 0.008023821 0.09772911 -0.15771009 0.10826183
0.08141242 -0.10121463 -0.11660681 -0.15481265 -0.074240886 -0.14085518 0.07768228 0.07110634
-0.029780533 -0.14829642 -0.024141252 -0.053700995 -0.010974789 -0.020495448 -0.15434954 0.13931583
-0.09320126 -0.059898563 -0.12659083 -0.023621118 0.002180928 -0.10632108 0.05743263 0.119192354
-0.13125223 -0.113314524 0.06693865 -0.04382098 -0.07536468 0.06451935 0.08225538 -0.12532735
-0.0705794 0.050950497 -0.104027614 0.16750526 -0.018994644 0.4080813 -0.08630127 0.08499278
0.11748483 0.15195684 0.0094757015 0.12384578 0.16905057 -0.017496992 -0.13763091 0.009557196
0.32553464 0.024854012 0.104587324 -0.08644429 0.14677116 0.05884251 0.09332604 0.10548768
-0.33346993 -0.06042336 0.06988658 0.07307117 0.106272265 -0.0609317 -0.1337027 -0.036580943
0.20359977 -0.02425055 -0.14807378 0.15810539 -0.19495061 0.031678304 0.13741621 -0.16462615
-0.08654074 0.09530337 -0.14065762 -0.13823515 0.16617808 -0.011244695 0.10898826 -0.018759139
-0.17063956 -0.07375444 0.03845849 0.4919525 0.100448474 -0.14734587 -0.07889222 0.2728864
-0.045841116 -0.09046914 -0.011787075 -0.053848352 -0.15460746 0.015347811 0.25035048 0.08285107
0.033655334 0.11691572 0.121949285 -0.04637722 0.14711331 -0.020453632 -0.15808292 -0.21869992
0.1480616 0.07786894 0.09440556 0.10972366 -0.035782 -0.13124412 0.14554691 -0.15480416
0.13302693 0.013658964 -0.10088031 -0.03142702 0.11670918 0.10431803 0.017702244 -0.07537743
-0.010879493 -0.09661895 0.09826888 0.06330283 0.042499356 -0.12748252 -0.047426473 -0.16976096
-0.068259776 0.24660423 -0.21230192 -0.18402167 0.07070523 0.42049575 0.04984872 -0.03637098
0.08763962 -0.080535695 -0.1564652 0.10767064 0.14684498 0.2326104 0.0071951896 0.12932907
00000000: dd4f 8fbd 361e 18be d67a b5bd fa39 e13b
00000010: 1ad4 ca3d a690 acbc 6731 dc3c f667 c53d
00000020: cfa0 3b3d 8452 46bc e6eb 05be ac24 293d
00000030: 6111 163d b4f8 f13c 844f 3ebe 45fa 01be
00000040: 6407 27bd bfa2 7cbd f7c3 f6bd c718 553d
00000050: 4317 7fbd bbba 323d 63ef c9bd ca99 873d
00000060: d307 1bbe d7c5 633d 42ea 823d 6f9f 8ebd
00000070: 3267 013e f1e7 eabd a5e9 7d3d 3967 ccbd
00000080: dc8e 0e3e a229 30be 6463 9eba 5f72 edbc
00000090: be7f 0d3e 8947 63bd aab0 d0bd 2eda b63d
000000a0: 63cf 8fbd 9df5 55bd c1a5 30bd 6545 28bc
000000b0: 4422 99bb cdd1 eebd 21fd a03d 7b77 28be
000000c0: 4c20 59be 6943 c1bd c568 9b3d 2ae5 18bd
000000d0: 39d7 803c c4f1 3e3d 5251 2d3e 60c7 fbbd
000000e0: 8803 753d 7e35 9b3d 85af 5bbd 5898 abbd
000000f0: e7d0 39bd 0fdf ba3c c4d7 983b e8d6 3ebd
00000100: bf2a aabd 5ebc e13d 8ce9 4ebd 4f7e 143e
00000110: 5e3d 7ebd 5b8b df3d 8f1f 083e 6b13 93ba
00000120: e9b0 c8bd cc6e 493d bac1 d73d 4021 913d
00000130: a90c b43d c54c bebd 8387 8e3d b062 19be
00000140: d1e8 73bd 9fe8 683c e2ac cabc 56e0 0f3e
00000150: 71f8 073d 407b 223e 9075 cd3d 3fe0 e6bd
00000160: b880 2c3e 1ed7 b4bd d22c 103e 48b1 833d
00000170: 537c ec3c 9f63 273d 5222 c93d 3877 013d
00000180: 87b6 68bc 51df b8bb 852b 1dbe b74a f63c
00000190: 09ba a93d 327c 6e3d 7913 fcbd a3a9 a93c
000001a0: caa4 fbbd fef6 1abe 619b bcbd 59c1 0dbe
000001b0: 5876 033c 3326 c83d c17e 21be 61b8 dd3d
000001c0: 8ebb a63d 9e49 cfbd 8dcf eebd 3587 1ebe
000001d0: 9b0b 98bd 573c 10be e317 9f3d 33a0 913d
000001e0: 4ef6 f3bc 04db 17be e0c3 c5bc 93f5 5bbd
000001f0: 9acf 33bc 12e6 a7bc ce0d 1ebe cfa8 0e3e
00000200: 4de0 bebd 3258 75bd 07a1 01be 1381 c1bc
00000210: e6ed 0e3b debe d9bd 7a3e 6b3d 1f1b f43d
00000220: fc66 06be 7211 e8bd 2217 893d a17d 33bd
00000230: cc58 9abd b922 843d 8275 a83d d055 00be
00000240: ef8b 90bd 78b1 503d 6e0c d5bd 8086 2b3e
00000250: a89a 9bbc 08f0 d03e b8be b0bd b210 ae3d
00000260: e39b f03d 939a 1b3e f93f 1b3c dba2 fd3d
00000270: 981b 2d3e da55 8fbc 1eef 0cbe c995 1c3c
00000280: 7aac a63e a49a cb3c e131 d63d b409 b1bd
00000290: 2e4b 163e d804 713d b921 bf3d ed09 d83d
000002a0: 92bc aabe 7c7e 77bd b220 8f3d 56a6 953d
000002b0: 46a5 d93d 8593 79bd 5ce9 08be e6d5 15bd
000002c0: 757c 503e 17a9 c6bc a7a0 17be 61e6 213e
000002d0: 22a1 47be 1cc1 013d d6b6 0c3e c293 28be
000002e0: 463c b1bd 6a2e c33d 8d08 10be 848d 0dbe
000002f0: 962a 2a3e ab3b 38bc 3d35 df3d c4ac 99bc
00000300: 23bc 2ebe 910c 97bd a686 1d3d 33e1 fb3e
00000310: eeb7 cd3d d6e1 16be 3f92 a1bd c4b7 8b3e
00000320: e5c3 3bbd e247 b9bd 931e 41bc 1790 5cbd
00000330: 6b51 1ebe 6375 7b3c f02d 803e d2ad a93d
00000340: 2dda 093d 8271 ef3d 8cc0 f93d 0af6 3dbd
00000350: dfa4 163e 608e a7bc 7de0 21be dff2 5fbe
00000360: 769d 173e c079 9f3d b457 c13d ccb6 e03d
00000370: 2590 12bd dc64 06be 400a 153e fb84 1ebe
00000380: 3638 083e d9c9 5f3c 569a cebd 9eb9 00bd
00000390: 3905 ef3d b1a4 d53d 4c04 913c 7b5f 9abd
000003a0: e73f 32bc 28e0 c5bd 3241 c93d eaa4 813d
000003b0: ce13 2e3d c78a 02be 4342 42bd d1d5 2dbe
000003c0: c8cb 8bbd d285 7c3e ad65 59be 2d70 3cbe
000003d0: e7cd 903d 384b d73e 2c2e 4c3d bdf9 14bd
000003e0: 677c b33d e6ef a4bd 6a38 20be 6d82 dc3d
000003f0: 885e 163e 6c31 6e3e a0c5 eb3b d76e 043e

decoder.ffn.4.weight f4 [16, 16]
-0.22348538 -0.103480086 -0.18883544 0.24201696 -0.07390018 -0.19128847 0.27523336 0.34650287
0.30696175 -0.3677843 -0.25310707 0.009524396 -0.22816767 0.05171889 -0.09911447 0.2002325
-0.23770003 0.11780123 -0.14777502 -0.0053875432 0.112433776 0.1375042 -0.068295866 0.12364961
-0.087095186 0.029824616 0.4184853 -0.27063712 0.31720322 0.12924837 -0.12520513 -0.16945787
-0.13763729 -0.0824603 -0.047680885 0.25631934 0.06356493 0.2112705 -0.20184827 -0.30054736
-0.19772348 0.029233592 0.23442583 -0.052984487 0.33679286 0.21309361 -0.12006314 0.30878085
0.0789403 -0.1441433 0.17057219 -0.0911184 0.17720924 -0.19845055 -0.2156411 -0.0021342123
-0.043650568 0.2816947 -0.21517809 -0.11136081 -0.20605133 0.23295009 -0.15793091 -0.19556546
0.12460895 -0.09266513 0.15079074 0.16574828 0.02344925 -0.09786949 -0.15500559 0.38663578
0.12065234 -0.2499398 -0.37429398 0.3147983 -0.2652163 0.0641613 -0.019061537 -0.006139545
-0.16484131 0.17490156 0.10922722 -0.014905551 0.06147345 -0.3179578 0.11398098 0.047136948
-0.023238892 -0.13905518 -0.23564126 0.016690789 0.15437448 0.22232834 -0.30081037 -0.058476973
0.053717762 0.02678329 0.14533538 0.017942607 0.17408745 -0.054129932 0.26164865 0.30663866
0.42068914 -0.18966842 0.057572518 0.24405849 0.018921291 0.23330268 -0.14242262 -0.22869523
0.10989396 -0.2208018 0.18105641 0.23809288 -0.08632762 0.2317597 0.10192655 -0.18402335
-0.1044374 0.12574773 0.34166563 -0.08926848 0.11915453 -0.18571988 -0.025162615 -0.064348534
-0.16858809 0.00012180847 -0.085982025 -0.11755572 0.3508173 0.23761398 0.10477137 -0.04230913
-0.22767504 0.045788597 0.1955595 0.0522137 -0.059707906 0.15173003 0.17409419 -0.13508561
0.057713058 0.36055213 -0.048863262 -0.094389886 -0.0009013692 0.14377813 -0.14439204 -0.23149419
-0.0010064055 -0.18780883 -0.34617668 -0.14349177 -0.19740477 0.11690067 -0.0081636915 -0.07011679
0.10107768 0.3764686 0.14560235 -0.14995117 -0.19712274 -0.0046133846 -0.16687159 0.3967539
0.40937707 -0.10249517 -0.061453562 0.14576207 -0.23012201 -0.20147707 0.30380198 -0.06996722
0.028329393 -0.06496825 -0.13721347 -0.035721492 0.18625158 0.1510513 -0.20840017 -0.03736276
-0.123266965 0.16884728 0.32647452 -0.065177806 0.3414299 0.11830423 -0.08062566 -0.04363539
-0.0791017 -0.032412075 0.12471617 0.2036272 0.13168728 0.24542719 0.1715311 -0.16784148
-0.001213513 0.11540702 0.38356647 -0.122962326 -0.04869914 -0.0219523 -0.07137535 0.065797284
-0.21977063 0.040823102 0.1765461 0.08091825 0.19330694 -0.22579055 -0.24099194 -0.27753466
-0.015955346 0.18829311 0.3142728 -0.11181941 0.2588171 -0.014286182 0.23378839 0.2712826
-0.06887887 0.10501116 -0.025801377 0.20163059 0.08740217 -0.0046679764 0.044090584 -0.23929398
0.027219819 -0.26002446 0.123640195 -0.23019205 0.10701015 -0.13656862 0.1505542 -0.016197251
0.18388146 0.13767482 -0.025853144 0.11413924 -0.2311249 0.28558603 0.18568726 0.34272557
0.257192 -0.23588479 -0.34508547 0.35657287 -0.1969636 -0.034924753 0.052588966 -0.15958467
00000000: 5ad9 64be 5eed d3bd 145e 41be 4bd3 773e
00000010: fa58 97bd 20e1 43be 63eb 8c3e d368 b13e
00000020: 172a 9d3e 394e bcbe 4097 81be 360c 1c3c
00000030: c9a4 69be 30d7 533d 87fc cabd c009 4d3e
00000040: a367 73be c541 f13d 5652 17be fd89 b0bb
00000050: ae43 e63d e7cd 0c3e b4de 8bbd 023c fd3d
00000060: f65e b2bd c152 f43c b543 d63e f390 8abe
00000070: 7668 a23e af59 043e c635 00be 5d86 2dbe
00000080: caf0 0cbe f2e0 a8bd 084d 43bd 4a3c 833e
00000090: 542e 823d 4b57 583e 50b1 4ebe 58e1 99be
000000a0: 0678 4abe 497b ef3c 530d 703e 4306 59bd
000000b0: 1d70 ac3e 3635 5a3e aae3 f5bd 8618 9e3e
000000c0: 74ab a13d 4d9a 13be 7aaa 2e3e 499c babd
000000d0: 5776 353e 9f36 4bbe 05d1 5cbe 24de 0bbb
000000e0: f0ca 32bd 4a3a 903e a557 5cbe 2311 e4bd
000000f0: 1fff 52be 788a 6e3e a4b8 21be 5042 48be
00000100: fa32 ff3d 37c7 bdbd e368 1a3e ebb9 293e
00000110: a418 c03c cd6f c8bd c9b9 1ebe 20f5 c53e
00000120: 9318 f73d 38f0 7fbe 76a3 bfbe 3e2d a13e
00000130: 6eca 87be 0067 833d f126 9cbc 3c2e c9bb
00000140: 29cc 28be 6519 333e 85b2 df3d 6a36 74bc
00000150: 96cb 7b3d 5dcb a2be dc6e e93d ac12 413d
00000160: 7d5f bebc 7b64 0ebe f14b 71be 1fbb 883c
00000170: 5814 1e3e 0aaa 633e d103 9abe 8d85 6fbd
00000180: 2807 5c3d a168 db3c ccd2 143e 60fc 923c
00000190: fb43 323e 59b7 5dbd d0f6 853e beff 9c3e
000001a0: 9164 d73e 7038 42be 29d1 6b3d 78ea 793e
000001b0: d300 9b3c e6e6 6e3e 3cd7 11be 152f 6abe
000001c0: 1610 e13d de19 62be da66 393e 9fce 733e
000001d0: 89cc b0bd 6a52 6d3e debe d03d 9e70 3cbe
000001e0: 47e3 d5bd 03c4 003e ccee ae3e 65d2 b6bd
000001f0: 4a07 f43d 5a2d 3ebe d421 cebc 2ac9 83bd
00000200: 5ba2 2cbe 6d73 ff38 5817 b0bd 0ec1 f0bd
00000210: 539e b33e 1451 733e 5f92 d63d 574c 2dbd
00000220: a523 69be d38c 3b3d c040 483e 08de 553d
00000230: 4790 74bd 1e5f 1b3e bf45 323e e253 0abe
00000240: 8764 6c3d 4a9a b83e d824 48bd 7c4f c1bd
00000250: dd49 6cba 933a 133e 82db 13be d00c 6dbe
00000260: 5de9 83ba f550 40be 123e b1be 82ef 12be
00000270: 7a24 4abe 9e69 ef3d 01c1 05bc 6499 8fbd
00000280: d101 cf3d 7ec0 c03e c818 153e cd8c 19be
00000290: 8bda 49be e02b 97bb 63e0 2abe 5423 cb3e
000002a0: df99 d13e fde8 d1bd bbb6 7bbd a742 153e
000002b0: 1ba5 6bbe 0150 4ebe ef8b 9b3e f94a 8fbd
000002c0: 0b13 e83c 130e 85bd b081 0cbe b350 12bd
000002d0: bcb8 3e3e 31ad 1a3e db66 55be b209 19bd
000002e0: 6473 fcbd 4de6 2c3e ab27 a73e f17b 85bd
000002f0: e6cf ae3e 7d49 f23d 111f a5bd 06bb 32bd
00000300: 1200 a2bd 86c2 04bd 316b ff3d a683 503e
00000310: 08d9 063e 4451 7b3e d9a5 2f3e a3de 2bbe
00000320: bd0e 9fba 845a ec3d d362 c43e acd3 fbbd
00000330: c078 47bd 4fd5 b3bc 3d2d 92bd bac0 863d
00000340: 8d0b 61be 2036 273d 80c8 343e 78b8 a53d
00000350: 41f2 453e a335 67be 97c6 76be 0619 8ebe
00000360: c9b4 82bc e9cf 403e 5de8 a03e 9301 e5bd
00000370: ad83 843e 9710 6abc 3966 6f3e 8ee5 8a3e
00000380: 5d10 8dbd 1710 d73d 695d d3bc 4078 4e3e
00000390: e9ff b23d d3f5 98bb 5498 343d 7b09 75be
000003a0: 19fc de3c ed21 85be 1237 fd3d 77b7 6bbe
000003b0: 2328 db3d a5d8 0bbe e12a 1a3e 19b0 84bc
000003c0: 6c4b 3c3e a1fa 0c3e f9c9 d3bc d5c1 e93d
000003d0: 01ac 6cbe 5538 923e cd24 3e3e ba79 af3e
000003e0: abae 833e c88b 71be 0baf b0be b890 b63e
000003f0: d3b0 49be 420d 0fbd 8767 573d 2a6a 23be

decoder.ffn.7.weight f4 [1, 16]
0.39613876 -0.26174787 -0.3001437 0.048317827 0.16839352 -0.071531475 0.23911802 -0.2669216
-0.10894649 0.2155972 0.27492836 -0.27734536 -0.27981755 -0.23716342 -0.2657794 0.16680072
00000000: b3d2 ca3e d103 86be 6fac 99be eae8 453d
00000010: 5a6f 2c3e 187f 92bd 5bdb 743e f3a9 88be
00000020: 561f dfbd 83c5 5c3e 69c3 8c3e 3600 8ebe
00000030: 3f44 8fbe f8da 72be 3d14 88be cfcd 2a3e

exp_avg f4 [46, 94]
0.0 0.0 -0.014454238 -0.0028329394 0.00024988723 6e-45 7.0032993e-09 0.0
6e-45 -0.0004986981 -5.4240636e-06 0.0 0.0 0.0 -0.0010600081 0.0009754761
-0.0025544192 -0.014902455 0.0 6e-45 -0.017542174 7.660887e-07 0.0 -0.0075361473
-0.004105437 -0.004805279 -0.0010945472 0.0 0.0 0.0001697032 -0.0035482792 -0.014162834
0.0 -0.0017954453 -0.008112277 0.0 0.0 0.0009664482 0.0 7.143383e-05
0.0 -7.0032993e-09 0.0 0.0 0.0 0.0 0.0 0.0
0.0 7.143383e-05 0.0 -2.857562e-26 0.0009664413 0.0 0.0 0.0010378751
0.0 0.0 7.142683e-05 0.0019795145 -0.00089586055 -0.00011720539 0.0 0.0
0.0 7.143383e-05 0.0009664413 0.0 0.0 -0.004202999 -0.013154752 -9.376494e-05
-0.0003330217 -0.0013579039 -0.0027107166 -0.0059170723 -0.014939441 0.0 0.0 0.0
0.0 0.0 0.0015664683 7.143383e-05 0.0 0.0 -6e-45 -0.0022798595
0.0016379022 0.0 0.0 0.0 0.0 0.0 0.0 0.0
0.00068922853 -0.001964969 0.0029177696 0.0 0.0001363872 0.0 0.0018098662 0.0
6e-45 0.0 0.0 0.0 6e-45 0.0058144117 -0.0023098283 8.36991e-05
0.0 0.0 0.0035882827 0.0 0.0 0.0048630275 -0.0012747447 6e-45
6e-45 0.0 0.0 6e-45 0.00071535783 0.0028729253 0.0 0.0013015437
0.0013683233 0.0 0.0 -6e-45 0.0 -6e-45 0.0 -0.0001363872
0.0 0.0 0.0 0.0 0.0 0.0 0.0 -6e-45
0.0 0.0 -0.0001363872 0.0 0.0 -0.0001363872 0.0 0.0
-0.0001363872 -6e-45 -6e-45 -6e-45 0.0 0.0 0.0 -6e-45
-0.0001363872 0.0 0.0 0.0021019902 0.0015644128 6e-45 6e-45 0.0013015437
0.0019134918 0.0013384416 0.0028659566 0.0 0.0 0.0 0.0 0.0
-0.00096546806 -6e-45 0.0 0.0 -6e-45 0.00058593886 -0.00096546806 0.0
0.0 0.0 0.0 0.0 0.0 0.0 -0.010901034 -2.1890439e-05
0.00021329729 -8.080773e-05 6e-45 0.0 0.0 0.001297328 1.107533e-17 0.0
0.0 0.0 0.0012165201 0.0007877575 -0.009063543 -0.00243384 0.0 6e-45
-0.009493104 0.0 0.0 0.0022149682 -0.009764952 -0.00076201675 -0.0011811062 0.0
0.0 0.0005744601 -0.010044695 -2.2870348e-05 0.0 -0.0056647756 -0.0114961555 0.0
0.0 0.00102063 0.0 -6e-45 0.0 -6e-45 0.0 0.0
0.0 0.0 0.0 0.0 0.0 -6e-45 0.0 0.0043996144
-0.0033789845 0.0 0.0 0.00102063 0.0 0.0 -6e-45 0.00027081202
-6e-45 0.000749818 0.0 0.0 0.0 0.0043996144 -0.0033789845 0.0
00000000: 0000 0000 0000 0000 78d1 6cbc d6a8 39bb
00000010: 4c03 8339 0400 0000 aca1 f031 0000 0000
00000020: 0400 0000 10bb 02ba 5a00 b6b6 0000 0000
00000030: 0000 0000 0000 0000 f8ef 8aba 18b7 7f3a
00000040: 0b68 27bb 6d29 74bc 0000 0000 0400 0000
00000050: 9bb4 8fbc 37a5 4d35 0000 0000 c9f1 f6bb
00000060: e786 86bb 9a75 9dbb e976 8fba 0000 0000
00000070: 0000 0000 5bf2 3139 3f8a 68bb 3b0b 68bc
00000080: 0000 0000 2655 ebba 5be9 04bc 0000 0000
00000090: 0000 0000 3e59 7d3a 0000 0000 bfce 9538
000000a0: 0000 0000 aca1 f0b1 0000 0000 0000 0000
000000b0: 0000 0000 0000 0000 0000 0000 0000 0000
000000c0: 0000 0000 bfce 9538 0000 0000 e77f 0d95
000000d0: c758 7d3a 0000 0000 0000 0000 4f09 883a
000000e0: 0000 0000 0000 0000 fdca 9538 beba 013b
000000f0: 2fd8 6aba 2acc f5b8 0000 0000 0000 0000
00000100: 0000 0000 bfce 9538 c758 7d3a 0000 0000
00000110: 0000 0000 50b9 89bb 0787 57bc aba3 c4b8
00000120: 6a99 aeb9 b2fb b1ba 47a6 31bb 00e4 c1bb
00000130: 8fc4 74bc 0000 0000 0000 0000 0000 0000
00000140: 0000 0000 0000 0000 f451 cd3a bfce 9538
00000150: 0000 0000 0000 0000 0400 0080 b269 15bb
00000160: e1ae d63a 0000 0000 0000 0000 0000 0000
00000170: 0000 0000 0000 0000 0000 0000 0000 0000
00000180: 58ad 343a b6c6 00bb 0d38 3f3b 0000 0000
00000190: 2903 0f39 0000 0000 0839 ed3a 0000 0000
000001a0: 0400 0000 0000 0000 0000 0000 0000 0000
000001b0: 0400 0000 d286 be3b 7d60 17bb 9d87 af38
000001c0: 0000 0000 0000 0000 6529 6b3b 0000 0000
000001d0: 0000 0000 085a 9f3b 5615 a7ba 0400 0000
000001e0: 0400 0000 0000 0000 0000 0000 0400 0000
000001f0: da86 3b3a b047 3c3b 0000 0000 8f98 aa3a
00000200: 5059 b33a 0000 0000 0000 0000 0400 0080
00000210: 0000 0000 0400 0080 0000 0000 2903 0fb9
00000220: 0000 0000 0000 0000 0000 0000 0000 0000
00000230: 0000 0000 0000 0000 0000 0000 0400 0080
00000240: 0000 0000 0000 0000 2903 0fb9 0000 0000
00000250: 0000 0000 2903 0fb9 0000 0000 0000 0000
00000260: 2903 0fb9 0400 0080 0400 0080 0400 0080
00000270: 0000 0000 0000 0000 0000 0000 0400 0080
00000280: 2903 0fb9 0000 0000 0000 0000 8bc1 093b
00000290: fc0c cd3a 0400 0000 0400 0000 8f98 aa3a
000002a0: 21ce fa3a a66e af3a c6d2 3b3b 0000 0000
000002b0: 0000 0000 0000 0000 0000 0000 0000 0000
000002c0: 7717 7dba 0400 0080 0000 0000 0000 0000
000002d0: 0400 0080 b199 193a 7717 7dba 0000 0000
000002e0: 0000 0000 0000 0000 0000 0000 0000 0000
000002f0: 0000 0000 0000 0000 409a 32bc 5ca1 b7b7
00000300: 8ea8 5f39 5277 a9b8 0400 0000 0000 0000
00000310: 0000 0000 1b0b aa3a c44d 4c23 0000 0000
00000320: 0000 0000 0000 0000 a473 9f3a 8381 4e3a
00000330: 417f 14bc 0f81 1fbb 0000 0000 0400 0000
00000340: f788 1bbc 0000 0000 0000 0000 0029 113b
00000350: 2dfd 1fbc 14c2 47ba 59cf 9aba 0000 0000
00000360: 0000 0000 5d97 163a 8192 24bc b3d9 bfb7
00000370: 0000 0000 959f b9bb 5f5a 3cbc 0000 0000
00000380: 0000 0000 a9c6 853a 0000 0000 0400 0080
00000390: 0000 0000 0400 0080 0000 0000 0000 0000
000003a0: 0000 0000 0000 0000 0000 0000 0000 0000
000003b0: 0000 0000 0400 0080 0000 0000 a42a 903b
000003c0: f471 5dbb 0000 0000 0000 0000 a9c6 853a
000003d0: 0000 0000 0000 0000 0400 0080 c6fb 8d39
000003e0: 0400 0080 6f8f 443a 0000 0000 0000 0000
000003f0: 0000 0000 a42a 903b f471 5dbb 0000 0000

exp_avg_sq f4 [46, 94]
0.0 0.0 0.0099787405 0.00022757922 1.1025763e-05 2.590328e-06 4.6908934e-07 0.0
9.716248e-11 7.869237e-06 4.5639524e-07 0.0 0.0 0.0 2.1055777e-05 7.599763e-06
0.0008846402 0.007419047 0.0 6.290087e-12 0.012034524 2.9876188e-10 0.0 0.0015174226
0.0015671763 0.0011573952 0.00022255504 0.0 0.0 6.604045e-07 0.0009260246 0.007286042
0.0 0.00040421312 0.0017192258 0.0 0.0 3.9550563e-05 0.0 5.2206615e-06
0.0 4.6908934e-07 0.0 0.0 0.0 0.0 0.0 0.0
0.0 5.2206615e-06 0.0 1.6687516e-06 3.6906004e-05 0.0 0.0 3.879755e-05
0.0 0.0 5.766866e-06 5.1093302e-05 3.4897792e-05 2.8234151e-06 0.0 0.0
0.0 6.853675e-06 3.6906004e-05 0.0 0.0 0.0031420505 0.006261653 6.7516285e-06
2.5431912e-06 0.00013335806 0.00029576785 0.00061574316 0.007161908 0.0 0.0 0.0
0.0 0.0 9.462565e-05 5.2297632e-06 0.0 0.0 4.7369713e-07 0.00065356493
8.449155e-05 0.0 0.0 0.0 0.0 0.0 0.0 0.0
0.0003271657 0.00029781196 0.0008616334 0.0 1.5704517e-06 0.0 1.716579e-05 0.0
1.3880125e-10 0.0 0.0 0.0 6.831088e-08 0.0017827852 0.0005325253 7.536846e-05
0.0 0.0 0.0019073345 0.0 0.0 0.001740196 7.240405e-05 2.2324496e-06
7.016786e-08 0.0 0.0 4.983848e-11 0.00039156366 0.001068791 0.0 0.00038113625
0.00048756716 0.0 0.0 1.0518307e-07 0.0 5.7478672e-08 0.0 1.5704517e-06
0.0 0.0 0.0 0.0 0.0 0.0 0.0 5.7478672e-08
0.0 0.0 1.903927e-06 0.0 0.0 2.2983509e-06 0.0 0.0
1.9228355e-06 3.273352e-08 1.4947314e-08 7.016786e-08 0.0 0.0 0.0 5.7478672e-08
1.903927e-06 0.0 0.0 0.0008334919 0.00034505915 6.704589e-08 4.983848e-11 0.00038113625
0.00047768126 0.00046875176 0.0009915917 0.0 0.0 0.0 0.0 0.0
0.00014728679 5.7478672e-08 0.0 0.0 1.8551852e-08 0.00035874304 0.0001473304 0.0
0.0 0.0 0.0 0.0 0.0 0.0 0.0038220242 2.1866163e-07
5.428212e-05 8.145268e-05 1.33285685e-08 0.0 0.0 1.4715315e-05 9.989257e-09 0.0
0.0 0.0 0.000101906924 6.125409e-05 0.002382176 0.0010689793 0.0 7.479342e-12
0.0040169843 0.0 0.0 0.00074015197 0.0019762837 0.00070405874 7.882992e-05 0.0
0.0 3.1433287e-06 0.0025816783 0.0014454757 0.0 0.0016065544 0.0029723626 0.0
0.0 1.741375e-05 0.0 1.6046238e-08 0.0 1.33285685e-08 0.0 0.0
0.0 0.0 0.0 0.0 0.0 1.6046238e-08 0.0 0.00014847939
0.000106866944 0.0 0.0 1.7448006e-05 0.0 0.0 4.1323624e-08 4.522597e-06
7.72625e-09 7.800337e-06 0.0 0.0 0.0 0.000148545 0.000106866944 0.0
00000000: 0000 0000 0000 0000 df7d 233c 55a2 6e39
00000010: 4bfb 3837 7fd5 2d36 26d7 fb34 0000 0000
00000020: 9da9 d52e 1e06 0437 7c06 f534 0000 0000
00000030: 0000 0000 0000 0000 f0a0 b037 7801 ff36
00000040: 33e7 673a 7a1b f33b 0000 0000 1150 dd2c
00000050: 742c 453c ff3e a42f 0000 0000 41e4 c63a
00000060: b669 cd3a bdb3 973a aa5d 6939 0000 0000
00000070: 0000 0000 a746 3135 75c0 723a c0bf ee3b
00000080: 0000 0000 91ec d339 a557 e13a 0000 0000
00000090: 0000 0000 18e3 2538 0000 0000 242d af36
000000a0: 0000 0000 26d7 fb34 0000 0000 0000 0000
000000b0: 0000 0000 0000 0000 0000 0000 0000 0000
000000c0: 0000 0000 242d af36 0000 0000 def9 df35
000000d0: 85cb 1a38 0000 0000 0000 0000 8dba 2238
000000e0: 0000 0000 0000 0000 0081 c136 044d 5638
000000f0: 385f 1238 e779 3d36 0000 0000 0000 0000
00000100: 0000 0000 9ff8 e536 85cb 1a38 0000 0000
00000110: 0000 0000 dcea 4d3b 8d2e cd3b 0c8c e236
00000120: b1ab 2a36 08d6 0b39 4a11 9b39 d369 213a
00000130: 70ae ea3b 0000 0000 0000 0000 0000 0000
00000140: 0000 0000 0000 0000 c271 c638 537b af36
00000150: 0000 0000 0000 0000 7050 fe34 0054 2b3a
00000160: 0e31 b138 0000 0000 0000 0000 0000 0000
00000170: 0000 0000 0000 0000 0000 0000 0000 0000
00000180: 7087 ab39 a523 9c39 3ddf 613a 0000 0000
00000190: 4fc8 d235 0000 0000 41ff 8f37 0000 0000
000001a0: 149d 182f 0000 0000 0000 0000 0000 0000
000001b0: 4eb2 9233 58ac e93a 2b99 0b3a 220f 9e38
000001c0: 0000 0000 0000 0000 87ff f93a 0000 0000
000001d0: 0000 0000 4a17 e43a a1d7 9738 31d1 1536
000001e0: 30af 9633 0000 0000 0000 0000 2431 5b2e
000001f0: c94a cd39 ad16 8c3a 0000 0000 3ed3 c739
00000200: 28a0 ff39 0000 0000 0000 0000 01e1 e133
00000210: 0000 0000 78de 7633 0000 0000 4fc8 d235
00000220: 0000 0000 0000 0000 0000 0000 0000 0000
00000230: 0000 0000 0000 0000 0000 0000 78de 7633
00000240: 0000 0000 0000 0000 6f8a ff35 0000 0000
00000250: 0000 0000 5e3d 1a36 0000 0000 0000 0000
00000260: 100a 0136 e396 0c33 7e65 8032 30af 9633
00000270: 0000 0000 0000 0000 0000 0000 78de 7633
00000280: 6f8a ff35 0000 0000 0000 0000 b27e 5a3a
00000290: 0ee9 b439 defa 8f33 2431 5b2e 3ed3 c739
000002a0: 4b71 fa39 ccc2 f539 4cf8 813a 0000 0000
000002b0: 0000 0000 0000 0000 0000 0000 0000 0000
000002c0: ff70 1a39 78de 7633 0000 0000 0000 0000
000002d0: f45b 9f32 ad15 bc39 b47c 1a39 0000 0000
000002e0: 0000 0000 0000 0000 0000 0000 0000 0000
000002f0: 0000 0000 0000 0000 ed7a 7a3b 40c9 6a34
00000300: fcac 6338 93d1 aa38 aafb 6432 0000 0000
00000310: 0000 0000 cce1 7637 389d 2b32 0000 0000
00000320: 0000 0000 0000 0000 ddb6 d538 8a75 8038
00000330: 481e 1c3b fe1c 8c3a 0000 0000 f693 032d
00000340: e8a0 833b 0000 0000 0000 0000 c206 423a
00000350: 8a84 013b 9590 383a 7e51 a538 0000 0000
00000360: 0000 0000 faf1 5236 6031 293b 1e76 bd3a
00000370: 0000 0000 0593 d23a f8cb 423b 0000 0000
00000380: 0000 0000 be13 9237 0000 0000 0dd6 8932
00000390: 0000 0000 aafb 6432 0000 0000 0000 0000
000003a0: 0000 0000 0000 0000 0000 0000 0000 0000
000003b0: 0000 0000 0dd6 8932 0000 0000 22b1 1b39
000003c0: c11d e038 0000 0000 0000 0000 4f5d 9237
000003d0: 0000 0000 0000 0000 ce7b 3133 d0c0 9736
000003e0: 68bc 0432 31de 0237 0000 0000 0000 0000
000003f0: 0000 0000 bfc2 1b39 c11d e038 0000 0000
